model_params/LSTM.pth (torch, 12607 bytes, 10 tensors)

lstm.weight_ih_l0 f4 [40, 28]
0	0xbe8254ca	-0.25455314
1	0xbdbf02bf	-0.09326696
2	0x3e940e82	0.2891732
3	0xbea3c6d0	-0.3198762
4	0x3e653efc	0.22387308
5	0x3fa39f7e	1.2783048
6	0x3fa5b674	1.2946305
7	0x3eb39dec	0.35081422
8	0x3f003bb9	0.5009113
9	0x3e27cdc0	0.16387081
10	0x3e92f691	0.2870374
11	0x3f7fc379	0.9990764
12	0x3f72d21f	0.9485187
13	0x3fd0a2fe	1.6299741
14	0x3f9377cd	1.1520935
15	0x3fbc9823	1.4733928
16	0x3f90aa96	1.1302059
17	0x3f3e5f01	0.74363714
18	0x3f8a8141	1.0820695
19	0x3fa3c6b6	1.2795017
20	0x3f5d6581	0.8648301
21	0x3fd63f91	1.6738149
22	0x3f971bfa	1.1805413
23	0x3ec68d9e	0.3877992
24	0x3ee3f1e5	0.44520488
25	0xbeb01c0e	-0.34396404
26	0xbcd23f65	-0.025664994
27	0xbc93f73f	-0.018062232
28	0x3e9a1ad9	0.30098608
29	0x3e0f5ddb	0.14000647
30	0x3e8b0374	0.27151072
31	0xbe943115	-0.28943697
32	0x3e6d8226	0.23194179
33	0x3f0736d1	0.5281802
34	0x3f36c476	0.71393526
35	0x3f917d80	1.1366425
36	0x3f7c604a	0.98584425
37	0x3f6e627e	0.9311904
38	0x3f179a52	0.5921985
39	0x3f3a5414	0.72784543
40	0x3f08e9a3	0.534815
41	0x3f0697b5	0.52575237
42	0x3e851554	0.25992835
43	0x3f15d312	0.5852519
44	0x3f221e0d	0.63327104
45	0x3f3166c1	0.69297415
46	0x3edc15b4	0.42985308
47	0x3f294460	0.66119957
48	0x3e75d617	0.2400745
49	0x3f854adf	1.0413474
50	0x3fafb5df	1.3727378
51	0x3ff90328	1.9454088
52	0x3f974fb6	1.1821201
53	0x3f0bc829	0.54602295
54	0xbeeb0a7f	-0.45906445
55	0x3ed5a99d	0.41730967
56	0xbdf75b10	-0.12077916
57	0xbde03945	-0.10948423
58	0xbec9e258	-0.394305
59	0xbf9786a6	-1.1837966
60	0x3f8b2ed1	1.0873662
61	0x4048d64e	3.1380801
62	0x3f7b5699	0.9817901
63	0x407deaa1	3.9674456
64	0x3f5cd9a1	0.86269575
65	0xbf658c1f	-0.8966693
66	0x40970efe	4.72058
67	0x40c324ca	6.098241
68	0x40bfd766	5.9950438
69	0x41906d6a	18.053425
70	0x4049e0a0	3.154335
71	0xc1a00645	-20.003061
72	0xc1b674f3	-22.807104
73	0xc19c832c	-19.564049
74	0xc1664e71	-14.394151
75	0xc08e4a89	-4.4465985
76	0x4137b604	11.481937
77	0x4110e82b	9.056682
78	0x410655a9	8.395913
79	0x401e94cd	2.477832
80	0x407eef75	3.9833653
81	0xbe1e7e34	-0.1547783
82	0x3e54373c	0.20724195
83	0x3f27ed94	0.6559689
84	0xbe85f6b7	-0.2616479
85	0x3e6d484e	0.23172113
86	0xbe6ac35e	-0.22926089
87	0xbe29795e	-0.16550204
88	0xbfe5653e	-1.7921522
89	0x3f76d3fc	0.9641721
90	0x3fd62848	1.6731043
91	0x40236633	2.5531127
92	0x4049dbed	3.1540482
93	0x4083149f	4.096267
94	0x40e7503d	7.2285447
95	0x40bfb706	5.9910917
96	0x3fdcbe90	1.7245655
97	0x3d5d7b99	0.05407295
98	0xc08e2148	-4.4415627
99	0xc08ecb36	-4.462306
100	0x40453a2e	3.081676
101	0x3f99219d	1.1963383
102	0x404a4393	3.1603744
103	0x40a2037b	5.062925
104	0x40b2da02	5.5891123
105	0x40582c20	3.3776932
106	0x4044cb0f	3.0748937
107	0x400b2018	2.1738338
108	0x3f98165a	1.1881821
109	0x3f01c2d5	0.50687915
110	0x3ecf570c	0.404961
111	0x3e46d32e	0.19416496
112	0xbe11b0be	-0.14227578
113	0xbe625df2	-0.2210615
114	0xbe8851e4	-0.26624978
115	0xbf24f6f1	-0.644393
116	0x3e931bbc	0.28732097
117	0xbea00372	-0.3125263
118	0xbfe5c060	-1.7949333
119	0xbfd7f5fa	-1.6871941
120	0xbfe9a8f1	-1.8254682
121	0xbfad418d	-1.353563
122	0xbe87fa2a	-0.26558048
123	0xc048052b	-3.1253154
124	0xbfba2f63	-1.4545711
125	0xbfbcbf66	-1.474591
126	0xbfbe2d89	-1.4857646
127	0xbfa85ad9	-1.3152725
128	0xbf835a89	-1.0262004
129	0xbf9a252b	-1.2042593
130	0xbeaabe07	-0.33348104
131	0xbf4f58d6	-0.8099493
132	0xbf8180cf	-1.0117434
133	0xbf9d4122	-1.2285502
134	0xbfc441ae	-1.5332544
135	0xc009ea89	-2.15494
136	0xbf7f7685	-0.9979022
137	0xbe9915ca	-0.29899436
138	0xbf896695	-1.073443
139	0xbd80b60d	-0.062847234
140	0x3dec9ef2	0.11553754
141	0xbb94c33c	-0.0045398753
142	0x3ec4232d	0.38308087
143	0x3f297a66	0.6620239
144	0xbf0f7f5a	-0.560537
145	0xbee36f26	-0.44420737
146	0x400d98c8	2.21245
147	0x403e5469	2.973902
148	0x40109b33	2.2594726
149	0xbefcc343	-0.49367723
150	0xc08bea06	-4.3723173
151	0xc0bbc5a2	-5.867875
152	0xbf66d9cf	-0.901761
153	0x3f881cc4	1.0633779
154	0xc06f775f	-3.7416608
155	0xc11a8ad4	-9.658894
156	0xc0246526	-2.5686736
157	0x408cb327	4.396869
158	0x411a7edf	9.655974
159	0x40554b38	3.332716
160	0x3fb487b4	1.4103913
161	0xbd538b3d	-0.05164646
162	0x402e072b	2.7191875
163	0x3fd9ff3c	1.7031016
164	0x3ee63475	0.44961897
165	0xbe60af2b	-0.21941821
166	0xbf017727	-0.5057244
167	0x3e2a4f4d	0.16631813
168	0xbe9724d5	-0.29520288
169	0x3e3e82c9	0.18604578
170	0xbe99deb9	-0.30052736
171	0xbed05bc4	-0.40695012
172	0x40c83210	6.256111
173	0x409304b8	4.594326
174	0x3fe40ede	1.7817037
175	0x3fbebf6b	1.4902166
176	0x3fab129c	1.3365054
177	0x3feec4b9	1.8653785
178	0x3f8d704e	1.1049898
179	0x3f160dfd	0.58615094
180	0x3fd857b4	1.6901765
181	0x3fd710de	1.6802022
182	0x401efa56	2.4840293
183	0x40273f17	2.6132257
184	0x4002b008	2.041994
185	0x402b30ae	2.6748462
186	0x40b67567	5.7018313
187	0x40c75239	6.228787
188	0x4043f2b7	3.0616891
189	0x40a4e066	5.1523924
190	0x40b1a978	5.551937
191	0xc02a95bb	-2.6653888
192	0xbfa44c86	-1.2835853
193	0xbedef996	-0.43549794
194	0xbf80ec21	-1.0072061
195	0xbfb9a381	-1.4503022
196	0x3d2d20df	0.042267676
197	0xbe98e7dc	-0.29864395
198	0xbe682c84	-0.22673231
199	0xbe8d2280	-0.27565384
200	0xbeddc9ba	-0.43317968
201	0xbf46309c	-0.7741792
202	0xbf384ec5	-0.7199519
203	0xbf1cb592	-0.61214554
204	0xbf693171	-0.91091067
205	0xbfd9405d	-1.6972767
206	0xbf92be2d	-1.1464287
207	0xbfbc5ede	-1.4716451
208	0xbfcc93d5	-1.5982615
209	0xbfa91b65	-1.3211485
210	0xbfd76086	-1.6826332
211	0xbfc29660	-1.5202141
212	0xbf9eed15	-1.2416102
213	0xbf39e503	-0.7261507
214	0xbfadaffc	-1.3569331
215	0xbe4cb64a	-0.19991413
216	0xbf89e3ca	-1.0772641
217	0xbf88c845	-1.0686117
218	0xbf888f1b	-1.0668672
219	0xbf4dbb52	-0.80363953
220	0xbfae993a	-1.3640511
221	0xc02758a6	-2.6147857
222	0xc00d1b7c	-2.2048025
223	0xbcce97fb	-0.025218954
224	0xbc8830a7	-0.016624762
225	0xbf8edfe1	-1.1162072
226	0xbfe1ac4e	-1.7630708
227	0xbf82afa5	-1.0209852
228	0xbe49c80c	-0.19705218
229	0xbf8dab34	-1.1067872
230	0xc01f48c1	-2.4888155
231	0xbff53d40	-1.9159317
232	0x401713ec	2.360591
233	0x4090520a	4.5100145
234	0x40c8c72a	6.274312
235	0x40c65423	6.1977706
236	0x40a83d2b	5.257467
237	0x40738c9a	3.8054566
238	0x403bdb05	2.935243
239	0x40716374	3.7716951
240	0x4007fc26	2.124765
241	0x3f11859b	0.5684449
242	0xc0937ac5	-4.6087365
243	0xc0d36119	-6.6056027
244	0xc0a15efe	-5.0428457
245	0xc0397b7b	-2.8981616
246	0xc0143b95	-2.3161366
247	0xbffbbdea	-1.9667332
248	0xbfe43c1f	-1.7830848
249	0xbeb8e682	-0.36113364
250	0x3e5e117f	0.21686362
251	0x3dfb6df4	0.12276831
252	0x3df6df90	0.1205436
253	0x3e38ee7c	0.18059725
254	0x3e8201ed	0.25392094
255	0x3e0cc14b	0.1374561

lstm.weight_hh_l0 f4 [40, 10]
0	0xbfd41de7	-1.6571625
1	0x3fc2dee4	1.5224271
2	0xbfbd27e7	-1.4777802
3	0x3fb86439	1.4405586
4	0xbcb207bb	-0.021732202
5	0xbe6b597e	-0.22983357
6	0x3e4fcbe0	0.20292616
7	0x3f2652b9	0.64969975
8	0x3e9cf844	0.30658162
9	0xbe95beb0	-0.29247046
10	0xbe8e9d6d	-0.2785448
11	0xbda00b1c	-0.07814619
12	0xbff82dbd	-1.9388958
13	0x3f070f4e	0.5275773
14	0x3e53da89	0.20688833
15	0xc03483c0	-2.8205414
16	0xbfa1c0d9	-1.2636977
17	0x3f44b486	0.76837957
18	0xc0231f0e	-2.5487704
19	0xbeed930b	-0.46401247
20	0xbf105355	-0.56377155
21	0x3f24f819	0.64441067
22	0x3d9a8f6c	0.07546887
23	0x401470e6	2.3193908
24	0xbec5e14d	-0.38648453
25	0xbf92d980	-1.1472626
26	0x3ed2a871	0.41144136
27	0xbf67ae34	-0.9050019
28	0xbec2774d	-0.37981644
29	0x3f7c056d	0.9844578
30	0xbef666f3	-0.4812542
31	0x400d3e3a	2.206923
32	0xbfb400d3	-1.4062752
33	0xbf252c8a	-0.64521086
34	0x406cf960	3.7027206
35	0x400cf06f	2.202175
36	0xbf3acd7d	-0.729698
37	0x3ff83f6d	1.9394356
38	0x3fe990a4	1.8247266
39	0xbf91be4b	-1.1386198
40	0x3e22ecf9	0.1591071
41	0x3f1a3743	0.6024057
42	0xbeef55f7	-0.46745273
43	0x3d485b60	0.048915267
44	0xbe4e4303	-0.2014275
45	0xbe7abca8	-0.24486029
46	0x3ea78199	0.32716063
47	0x3ed9967f	0.42497632
48	0x3eaa3288	0.33241677
49	0x3f05f632	0.5232879
50	0xbf8c5de6	-1.0966156
51	0xbf24f110	-0.6443033
52	0x3e66a1b4	0.22522622
53	0xbe3a972f	-0.18221734
54	0xbfc81ba0	-1.563343
55	0xbfb2b0f8	-1.3960257
56	0xbf87bbad	-1.0604149
57	0xbfc726f9	-1.5558769
58	0x3f88a23c	1.067451
59	0x3faa6a09	1.3313609
60	0x3e841757	0.25799057
61	0x3edbfd78	0.4296682
62	0xbd8bf6ef	-0.06834208
63	0x3efe6d4c	0.49692762
64	0xbfb2c6e6	-1.3966949
65	0xbf420535	-0.75789195
66	0x3ca93969	0.020657258
67	0xbfb9a17d	-1.4502407
68	0x3f5b35bc	0.8562887
69	0x3e6e449e	0.23268363
70	0xc011c40a	-2.2775903
71	0x402d31bf	2.7061613
72	0xc02be3ab	-2.6857708
73	0xbfa68d58	-1.3011885
74	0x3ec4002b	0.38281378
75	0x4032e596	2.7952628
76	0x3ff6bfaf	1.9277247
77	0x3f6711fe	0.9026183
78	0x3fd331f2	1.6499617
79	0x3fd4d5c0	1.6627731
80	0x3ec3ff58	0.3828075
81	0xbf213486	-0.6297077
82	0xc0025b1c	-2.0368109
83	0x3edbc852	0.4292627
84	0xc00ec405	-2.230714
85	0x3d0601b5	0.03271647
86	0xc018dee9	-2.3886054
87	0x400d0564	2.203454
88	0x3ff1618b	1.8857893
89	0x3c8af1e4	0.016961046
90	0x3f1dba7d	0.61612684
91	0xbded2537	-0.11579364
92	0xbdd12cde	-0.10213636
93	0x3e93250a	0.28739196
94	0xbebb4c0f	-0.36581466
95	0x3ec2fa14	0.3808142
96	0x3ecad5eb	0.3961633
97	0xbe5cdd46	-0.21568784
98	0x3f254a3c	0.645664
99	0x3f098c19	0.537294
100	0x3cc45391	0.023965629
101	0xbe9b0def	-0.30284068
102	0xbe895a23	-0.2682658
103	0xbe879766	-0.26482695
104	0xc00d6f0d	-2.209903
105	0x3e93ddee	0.28880256
106	0x3d32dc66	0.04366722
107	0x400de731	2.2172358
108	0xbe8eae36	-0.27867287
109	0x3d743bbd	0.059627283
110	0x3f5ac8b2	0.85462487
111	0xbf467296	-0.77518594
112	0xbff6ac69	-1.9271365
113	0x3dd2360a	0.102642134
114	0x3f8e844e	1.1134126
115	0xbfcc4b8d	-1.5960556
116	0xbe994fac	-0.29943597
117	0x3dda1b3c	0.10649726
118	0xbe4b3b89	-0.1984693
119	0xc02d84e3	-2.7112358
120	0xbe11f848	-0.14254868
121	0xbed3c540	-0.41361427
122	0x3f9ed520	1.240879
123	0xbf8ab317	-1.0835904
124	0xbf83054d	-1.0235993
125	0x3f12412d	0.571307
126	0x3fc0a48d	1.5050217
127	0x3ff4861b	1.9103426
128	0xbd58d3ce	-0.052936368
129	0xbf038f58	-0.513906
130	0xbfaf7f16	-1.3710659
131	0xbe81b3c6	-0.2533247
132	0xc062014a	-3.5313287
133	0xbf396091	-0.72412974
134	0x40678ddc	3.6180334
135	0x3f1b6674	0.60703206
136	0x4034f3c8	2.8273792
137	0x3ec4f02c	0.38464487
138	0x400b7332	2.178906
139	0xbed6f791	-0.41985753
140	0x3db60f84	0.08889678
141	0x3dff0d66	0.124537274
142	0x3e6728bc	0.22574133
143	0xbed4f253	-0.4159113
144	0xbfb9a560	-1.4503593
145	0xbea646f5	-0.3247601
146	0x3e1fbc63	0.15599208
147	0x3ee5b014	0.448609
148	0x3e5ca3b3	0.21546821
149	0x3eb786cb	0.35845026
150	0x3eaf3b61	0.3422499
151	0x3e58ad51	0.21159865
152	0x3ebfdbdd	0.3747243
153	0xbaa5e561	-0.0012656861
154	0xbff11f92	-1.883776
155	0xbdbca27d	-0.0921068
156	0x3f78abad	0.97136956
157	0xc05abfe8	-3.417963
158	0x3e8d8309	0.27639034
159	0x3f1663c3	0.58745974
160	0x3ee3a069	0.4445832
161	0xbd5f26fe	-0.054480545
162	0x3f3aa696	0.7291044
163	0x3f03c4ba	0.51472056
164	0xbfbc6556	-1.4718425
165	0xbe638f4c	-0.22222632
166	0x3fead605	1.8346564
167	0xbf82c126	-1.0215194
168	0xbd499dbd	-0.049222697
169	0x3dd29ab7	0.10283416
170	0x3f3cedcc	0.7380035
171	0x3ffe36eb	1.986051
172	0xbfe2a854	-1.770762
173	0x3f25d687	0.6478047
174	0xbf873eef	-1.0566081
175	0xbfb3ccda	-1.4046891
176	0x3f138e64	0.57639146
177	0xc030c8b6	-2.7622504
178	0x3f7556a6	0.9583534
179	0x3fe1f1b0	1.7651882
180	0x3e59bc5a	0.21263257
181	0xbfa11b13	-1.2586387
182	0x3e8ef26f	0.27919337
183	0x3ec9ec8f	0.39438292
184	0x3f9c3e84	1.2206578
185	0x3e98f034	0.2987076
186	0x3eb21a2a	0.34785587
187	0xbf17fd26	-0.5937065
188	0xbf64fa9a	-0.8944489
189	0x3ef8b19d	0.48573008
190	0x3ef7e5e4	0.4841758
191	0xbe859c21	-0.2609568
192	0x3d6d33be	0.057910673
193	0x3f02e023	0.51123255
194	0xbf1483e0	-0.58013725
195	0xbe79b1a8	-0.24384177
196	0x3f005290	0.5012598
197	0xbe9215e1	-0.28532317
198	0x3e05c753	0.13064317
199	0xbde7d496	-0.113198444
200	0x3f3ac468	0.7295594
201	0x3fa0ea1c	1.2571445
202	0xc0032a47	-2.0494554
203	0xbf619090	-0.8811121
204	0x3f883cf9	1.0643607
205	0x403e7467	2.9758546
206	0xbea44287	-0.32082006
207	0x400c8476	2.1955848
208	0x401cb539	2.448561
209	0xbe745604	-0.23860937
210	0xc027120e	-2.610477
211	0x3ff785d5	1.9337717
212	0x3d8560f5	0.06512634
213	0xbf9324c6	-1.1495597
214	0x3f02049c	0.50788283
215	0xc0249b00	-2.5719604
216	0x3f1fab02	0.6237031
217	0xbf9fe7ec	-1.2492652
218	0x405a5e50	3.4120064
219	0xbee53c87	-0.4477274
220	0xbfc243c5	-1.5176932
221	0x3f192eff	0.59837335
222	0xbfc4e329	-1.5381824
223	0x3de8177c	0.11332604
224	0xc02d7230	-2.7100945
225	0x40102785	2.252412
226	0x3fea98ac	1.8327842
227	0x4070ccf8	3.7625103
228	0xbfbee9b8	-1.4915075
229	0x3f309184	0.6897204
230	0x3ee0b78e	0.4389004
231	0x3d65e48a	0.056126155
232	0xbfa0a785	-1.2551123
233	0x3f09e43b	0.5386388
234	0x3f0d186a	0.5511538
235	0xbf071665	-0.52768546
236	0xbdfe8917	-0.124284916
237	0xbee3e4d7	-0.44510528
238	0x3f52563b	0.8216283
239	0xbf17b083	-0.5925371
240	0x3d3aec56	0.045635544
241	0xbeb28335	-0.34865728
242	0x3ea3d33a	0.3199709
243	0xbe36c30c	-0.17847842
244	0x3ea921a2	0.33033472
245	0xbcf7d7b1	-0.030254217
246	0x3df0cc95	0.11757771
247	0xbe4e5afd	-0.20151897
248	0xbe517304	-0.20454031
249	0xbeaf5ca4	-0.34250367
250	0xc03f4381	-2.988495
251	0x3fbe1623	1.4850506
252	0x3f218dcc	0.6310699
253	0x40465df9	3.0994856
254	0x3fb4fe92	1.4140189
255	0xbfa42486	-1.2823646

lstm.bias_ih_l0 f4 [40]
0	0x3d4ea969	0.05045453
1	0x3e499727	0.19686566
2	0xbd996dfa	-0.074916795
3	0x3fb23cad	1.3924767
4	0x40110d49	2.2664359
5	0x400b7481	2.1789858
6	0xbf008a4f	-0.5021104
7	0x3f780edc	0.96897674
8	0xbeeec749	-0.46636418
9	0x3f55e64b	0.83554524
10	0x3e8bce2e	0.2730574
11	0x3ed21719	0.41033247
12	0x3b9eabf0	0.004842274
13	0x3d1ac7ac	0.03778808
14	0x3f3bcf8a	0.73363554
15	0x3dff2f95	0.124602474
16	0x3ea8132e	0.32827133
17	0xbef5388a	-0.47894698
18	0x3ebf7f07	0.37401602
19	0x3ed049c6	0.40681285
20	0x3f6a38fd	0.9149321
21	0xbf769982	-0.96327984
22	0xbeec99b9	-0.4621103
23	0xbfb6cb3c	-1.4280772
24	0xbfd73107	-1.6811837
25	0xbec9cde8	-0.39414907
26	0x3f0e480b	0.5557868
27	0x3f3a0d34	0.72676396
28	0x3eaa338f	0.3324246
29	0x3f94a006	1.1611335
30	0xbfffb0e8	-1.9975863
31	0x3fba0258	1.4531965
32	0xbfd70a97	-1.6800107
33	0x3fdd87f0	1.730711
34	0x402a2431	2.658459
35	0xbf40e538	-0.7534976
36	0x3f1039a7	0.5633797
37	0x3f8627ba	1.0480874
38	0x3f979559	1.1842452
39	0xbf875cd2	-1.0575202

lstm.bias_hh_l0 f4 [40]
0	0x3e7855ce	0.24251482
1	0x3f1bdd56	0.60884607
2	0x3e138d92	0.14409474
3	0x3fc7bcf5	1.560454
4	0x401254a0	2.286415
5	0x3ff3da2f	1.9050959
6	0xbf764d60	-0.96211815
7	0x3f40a0de	0.75245464
8	0xbe4872a5	-0.19574983
9	0x3f4e852f	0.8067197
10	0x3df8e0b0	0.12152231
11	0x3e0d4f68	0.13799822
12	0xbe74164f	-0.23836635
13	0xbed99a73	-0.42500648
14	0x3f8446ec	1.0334144
15	0xbe0ca4ef	-0.13734792
16	0x3e5ec8d5	0.21756299
17	0xbebf4a9c	-0.3736161
18	0x3f518af3	0.81852645
19	0x3ebca10a	0.36841613
20	0x3f841329	1.0318347
21	0xbf26d93d	-0.6517523
22	0xbee3da27	-0.44502375
23	0xbfe2447a	-1.7677147
24	0xbfb16341	-1.3858415
25	0xbed75d04	-0.42063153
26	0x3f325b4c	0.6967056
27	0x3f95d408	1.1705332
28	0x3ceadeff	0.028670786
29	0x3f44dc7c	0.7689893
30	0xbfef40ad	-1.8691612
31	0x3fd1e606	1.6398323
32	0xbfc89bf3	-1.5672592
33	0x3fb8587e	1.4402006
34	0x40129e24	2.2909021
35	0xbf19e7f0	-0.60119534
36	0x3ec30cfe	0.3809585
37	0x3f8e8398	1.1133909
38	0x3fadae0b	1.3568739
39	0xbfaf0f00	-1.3676453

lstm.weight_ih_l1 f4 [40, 10]
0	0xbe21edf8	-0.15813434
1	0xbfba918a	-1.4575665
2	0xc03c1d4e	-2.9392886
3	0xc006b318	-2.104681
4	0xb928130f	-0.00016028828
5	0x3eb9ac5f	0.3626432
6	0xc0a4027b	-5.125303
7	0x408ec325	4.4613214
8	0x4014b066	2.3232665
9	0xbf4cf7db	-0.800657
10	0xbf08dcc5	-0.5346187
11	0x3dc6a640	0.096996784
12	0xbef53021	-0.47888282
13	0xbfe45558	-1.7838545
14	0x3edad9b2	0.42744213
15	0xbf62c523	-0.88582057
16	0xbe56a88c	-0.20962733
17	0x4023c346	2.5587935
18	0xbee3ef38	-0.44518447
19	0xbed762cc	-0.42067564
20	0xbe2219cc	-0.15830153
21	0xbe852f74	-0.26012766
22	0xbe60c95d	-0.21951814
23	0xbe17bcf6	-0.14818177
24	0x4058dfea	3.3886666
25	0x3d89fc06	0.06737523
26	0x3f0dff1e	0.554674
27	0x3f3dba79	0.7411266
28	0xbee621ce	-0.44947666
29	0x3ed60bfc	0.41806018
30	0xc0346dee	-2.8192096
31	0x3fcabf7d	1.5839688
32	0x3f1cee02	0.6130067
33	0xc0242b42	-2.5651402
34	0x405ae797	3.4203851
35	0x3dd00227	0.101566605
36	0xbe47d07c	-0.19513124
37	0x40998bb9	4.798306
38	0xbf9d9208	-1.231019
39	0xbe72ab11	-0.23698069
40	0x3b13732b	0.0022499065
41	0xbda8004c	-0.082031816
42	0xbf8cce98	-1.1000547
43	0xc0ada4b8	-5.4263573
44	0x3f3d433f	0.73930734
45	0xc0038d26	-2.05549
46	0x3f235d1d	0.63813955
47	0x400ce8a8	2.2017002
48	0xbe87ed58	-0.26548266
49	0xbf914576	-1.1349323
50	0x3f8cdee7	1.1005524
51	0xbf5607f3	-0.8360588
52	0x3c162b5d	0.009165612
53	0x3f5dcafd	0.8663786
54	0x409bc878	4.8682213
55	0x401644e1	2.347954
56	0x3d183434	0.03715916
57	0xc0572de0	-3.362175
58	0xbefdf53e	-0.49601167
59	0x3edf6be4	0.43637002
60	0x3e8cb66f	0.27482936
61	0x3e1fd515	0.15608628
62	0xbfedd2a0	-1.8579903
63	0xbfde2706	-1.7355659
64	0xbf35c082	-0.7099687
65	0x3f020b7c	0.50798774
66	0x402f648f	2.7405126
67	0xc03243f5	-2.7853978
68	0x3f9ec5f0	1.2404156
69	0xc0108cbf	-2.2585905
70	0xbe8ee0db	-0.27905926
71	0xbf32f36e	-0.69902694
72	0x3f28f3c1	0.6599694
73	0xbcc046a0	-0.023471177
74	0x408c5323	4.3851485
75	0x405a4a83	3.4107978
76	0xbdd34398	-0.10315627
77	0x3d2eb3ce	0.042651944
78	0xbfd2409f	-1.6425971
79	0x3feb934f	1.840433
80	0x3f3e14bd	0.74250394
81	0xbfde50b9	-1.7368385
82	0x3f63059e	0.88680446
83	0x3e4da4b3	0.20082359
84	0x3f29a16f	0.66261953
85	0x4010ac6f	2.2605245
86	0x3fbcc96e	1.4748971
87	0x3e5f5725	0.21810587
88	0x3fa3da5b	1.2801012
89	0xbf389b5f	-0.7211208
90	0xc0bb78a3	-5.858476
91	0xbf80a39e	-1.0049932
92	0x3fb23454	1.3922219
93	0xc0104150	-2.2539864
94	0x3f8ec656	1.1154277
95	0x3e9b6502	0.303505
96	0xbf3ac495	-0.7295621
97	0x4095061b	4.6569953
98	0x3f8dee3f	1.1088332
99	0xbf24463e	-0.6416968
100	0x4058e67f	3.3890684
101	0xbfc781e2	-1.5586512
102	0xc015591d	-2.333564
103	0x40a3bc41	5.11673
104	0xc065bcae	-3.589641
105	0xbffbfb6f	-1.9686106
106	0x3fba0fef	1.4536113
107	0xc0430617	-3.0472467
108	0x3f91652c	1.1359
109	0x40054683	2.0824287
110	0x3e2906da	0.1650652
111	0xbee1b04d	-0.4407982
112	0xbf5bde07	-0.8588566
113	0x3f32fc9f	0.6991672
114	0xc07d911f	-3.9619825
115	0xbffa91f0	-1.9575787
116	0xc0476f54	-3.11617
117	0x3fbdfe37	1.4843205
118	0x3f28f637	0.66000694
119	0x3f9c5590	1.2213612
120	0x3f3cf156	0.7380575
121	0x3f4144d1	0.7549563
122	0xbf81a723	-1.0129131
123	0x404f62e1	3.24041
124	0xc08087f3	-4.0165954
125	0x3faab3fe	1.3336179
126	0xbf019a5c	-0.5062616
127	0xc0051353	-2.0793045
128	0x40099a16	2.1500297
129	0x4025f68d	2.5931733
130	0x3fa86336	1.3155277
131	0xbff90042	-1.9453204
132	0xc046ef45	-3.1083539
133	0x3d7f036c	0.062259123
134	0xc00c4ceb	-2.1921947
135	0x3ea0f6af	0.31438205
136	0xbf8adcb8	-1.0848608
137	0xbda07d1d	-0.078363635
138	0x3fdf0405	1.7423102
139	0xbf11e3af	-0.5698804
140	0x3ea0a680	0.3137703
141	0x3f9538a7	1.1657914
142	0x3d77b232	0.060472675
143	0xbe22e2c6	-0.1590682
144	0xbfe7f7e4	-1.8122525
145	0xbfd3c754	-1.6545205
146	0x3fbb2e3e	1.4623487
147	0xbf568224	-0.8379233
148	0xbf080cf0	-0.5314474
149	0xbd412b83	-0.047160637
150	0x40324781	2.7856143
151	0x3fcf9009	1.6215831
152	0xbf99ab78	-1.2005453
153	0xbdb19bbb	-0.08672281
154	0x3faee6d4	1.3664193
155	0xbfbff81f	-1.4997596
156	0x3fb9ed64	1.4525571
157	0x3dd8ff39	0.10595555
158	0xbf5e4cfb	-0.8683621
159	0x3bbd4acc	0.0057767387
160	0x3f88b6d9	1.0680801
161	0xbf8cbcc0	-1.0995102
162	0xbeec91e2	-0.4620505
163	0x3ff909a5	1.9456068
164	0xbff2d3f8	-1.8970938
165	0xbee9a764	-0.4563552
166	0xc0515d88	-3.2713337
167	0xc08e2915	-4.442515
168	0xbf111645	-0.56674606
169	0x3fe5c1ad	1.794973
170	0xbea12e5e	-0.31480688
171	0xc0257016	-2.5849662
172	0xbf6a976e	-0.91637313
173	0xc04a03e0	-3.1564865
174	0xc01377c1	-2.3041842
175	0xc00f258c	-2.2366667
176	0x3f624bd4	0.88396955
177	0x3eb4f965	0.35346523
178	0xbd93bd24	-0.0721381
179	0x3d3b19e2	0.04567898
180	0xbf8a1cf8	-1.079009
181	0xc0172e04	-2.3621836
182	0xc00084a1	-2.008095
183	0xbf50713a	-0.8142277
184	0xc0a427da	-5.1298647
185	0xc093615d	-4.605635
186	0x3f63aeed	0.8893879
187	0x4009675f	2.1469343
188	0x3f9a0ec9	1.2035762
189	0xbd6057f0	-0.054771364
190	0x3f3bdf60	0.7338772
191	0xbe8d1ed0	-0.2756257
192	0x3fc97d9c	1.5741458
193	0xbff927f1	-1.9465314
194	0x3f751187	0.9572987
195	0x40341edb	2.8143833
196	0x4021b7c2	2.5268407
197	0xbfe7b071	-1.8100721
198	0xbf1be15c	-0.60890746
199	0x3f7bef1d	0.9841173
200	0xc011a504	-2.2756968
201	0x3fd554f0	1.6666546
202	0xbfb3c015	-1.4042994
203	0xc03c861b	-2.9456851
204	0xc0b265df	-5.5749354
205	0xbe82750e	-0.2547993
206	0x40436502	3.05304
207	0x405ce5d4	3.4515276
208	0xbf85b8b8	-1.0446997
209	0xbf6780a3	-0.9043066
210	0xbf7b4d3b	-0.9816472
211	0xbe29ef2e	-0.16595146
212	0x3eaa79c6	0.3329603
213	0xbf202fc3	-0.6257288
214	0xbdfaf0d8	-0.122529685
215	0xc003d9ab	-2.0601604
216	0x40564a84	3.348298
217	0xc0745bf4	-3.8181124
218	0xbfaa9fbd	-1.3329998
219	0xbfef0668	-1.867383
220	0xbf2b2696	-0.6685575
221	0x400aa3ed	2.1662552
222	0x3f5efb0d	0.87101823
223	0xbfe35ae3	-1.7762111
224	0xc0a9909a	-5.2989016
225	0x3fe47187	1.7847146
226	0xbdcb68f8	-0.099321306
227	0x40088fc5	2.133775
228	0x3ec5cc14	0.38632262
229	0x3f7070fb	0.93922395
230	0xc05ec9d9	-3.4810698
231	0xbf4a606f	-0.79053396
232	0x40144c6f	2.3171651
233	0xc026bbe5	-2.6052182
234	0xbf9f2d42	-1.2435687
235	0x3fbc72f8	1.4722586
236	0xbeac1958	-0.33613086
237	0xbe8d476b	-0.2759355
238	0x3fb5c157	1.4199628
239	0xbf95fcad	-1.1717736
240	0xbfdebc8c	-1.740129
241	0x3f011ef3	0.5043785
242	0xbf42e3af	-0.7612867
243	0x3f048d86	0.5177845
244	0xc016b475	-2.3547642
245	0xbe0c40d1	-0.136966
246	0x403e8751	2.977009
247	0x3cbeab77	0.02327512
248	0xbf93d83a	-1.1550362
249	0xbf6084fd	-0.87702924
250	0xbf459b29	-0.7718988
251	0xbfee8dd7	-1.8637036
252	0xbcb49169	-0.022041993
253	0xbf81ef22	-1.0151103
254	0xbf1ea9a6	-0.6197761
255	0x4090240b	4.5044

lstm.weight_hh_l1 f4 [40, 10]
0	0x3f1865ef	0.5953054
1	0xbf5bba66	-0.85831296
2	0xbf984dac	-1.1898704
3	0xbf05a844	-0.5220988
4	0x3f8a6bdb	1.0814165
5	0xbf92bdc5	-1.1464163
6	0xbfacdf1b	-1.3505586
7	0x3fe5c37a	1.795028
8	0x3eea62fc	0.45778644
9	0xbf78d75b	-0.97203606
10	0x3e9e9b88	0.30978036
11	0xbf9c6f32	-1.2221434
12	0x3f3eb4c9	0.74494606
13	0x3f96952b	1.1764272
14	0xbf1ffff9	-0.6249996
15	0x40105945	2.2554486
16	0xbf725d2e	-0.9467343
17	0x4020334a	2.5031304
18	0x3ed14006	0.40869159
19	0xbf971c66	-1.1805542
20	0xc0049595	-2.0716298
21	0xbd1af976	-0.03783556
22	0x40135715	2.30219
23	0xbf0a3276	-0.5398325
24	0xbf93b7c4	-1.1540456
25	0x3f415140	0.755146
26	0xbe09bc77	-0.134508
27	0xbf4284f0	-0.75984097
28	0xc02434d3	-2.5657241
29	0x3f139585	0.57650024
30	0xbfa1f0d5	-1.2651621
31	0xc05f661c	-3.4906073
32	0xc01fe94f	-2.498615
33	0xc080189a	-4.003003
34	0xc00ed0f1	-2.2315028
35	0x3f58069f	0.84385103
36	0x407d9e04	3.9627695
37	0xc04b2443	-3.1740882
38	0xbe4a058a	-0.19728675
39	0x3ecfd8df	0.40595147
40	0x3d40a470	0.04703182
41	0xc06af953	-3.6714675
42	0xbfceccd3	-1.6156257
43	0xbf8c60f8	-1.0967093
44	0xc097346f	-4.7251506
45	0x3baf7ebc	0.005355684
46	0xbbdc0c0e	-0.006715304
47	0xc0745360	-3.8175888
48	0x3f038f56	0.5139059
49	0x4035efd7	2.8427637
50	0x3e67cdc3	0.22637086
51	0x4008f97e	2.1402278
52	0x3f65e5c7	0.8980374
53	0x3ef8e44a	0.4861167
54	0x3ff755ec	1.9323096
55	0x3feaff62	1.8359187
56	0xc0fff84c	-7.9990597
57	0xbd647f62	-0.055785544
58	0xbe5dbce1	-0.21654083
59	0xbeaba290	-0.33522463
60	0xbfd42e8c	-1.6576705
61	0x3f5f960c	0.8733833
62	0xbd4ed688	-0.05049756
63	0xbf8142e1	-1.0098535
64	0xbbe2d0c5	-0.00692186
65	0x3f9f539f	1.2447394
66	0xc0b2dd5c	-5.5895214
67	0xbfdd75d3	-1.7301582
68	0x3eb1c9ad	0.3472418
69	0x3fdca4c9	1.7237788
70	0x3f0ba08a	0.5454184
71	0xbf19ed7b	-0.6012799
72	0xbf0c3de4	-0.5478194
73	0xbd900849	-0.0703283
74	0x3fde547d	1.7369534
75	0x3f876d48	1.0580225
76	0xbeb7c1de	-0.35890096
77	0x3fe787c6	1.808831
78	0x3fbc151f	1.4693946
79	0xbf078439	-0.5293613
80	0xbef62988	-0.4807856
81	0xbfe4f2eb	-1.7886633
82	0x40083d3e	2.128738
83	0x3fca0c6c	1.5785041
84	0xbe422b7a	-0.18961897
85	0x3e97a6fd	0.2961959
86	0xbf08bf2d	-0.5341671
87	0x3b614d2f	0.003437828
88	0xc033a135	-2.8067143
89	0x3f9a571b	1.2057832
90	0xbf8ab094	-1.0835137
91	0x3e7141ac	0.23560208
92	0xbfaa1b39	-1.3289558
93	0xbef998df	-0.48749444
94	0xbe150bad	-0.14555235
95	0x3ee5734a	0.4481452
96	0x40c827c4	6.254854
97	0x3dd074a9	0.10178501
98	0xbe477b6b	-0.19480674
99	0x3f7fd04f	0.9992723
100	0xbe868130	-0.26270437
101	0x3fd1c924	1.6389508
102	0x402167ec	2.521968
103	0x3eb7607f	0.35815808
104	0x3e6ff94f	0.23434947
105	0xbdad3116	-0.08456628
106	0x3c1da8f7	0.009622804
107	0x40087633	2.1322143
108	0x3eeebf74	0.46630442
109	0xbe722bad	-0.23649473
110	0x40b6f76f	5.7177043
111	0x4006363d	2.0970604
112	0xbf3856a2	-0.7200719
113	0x3fab50e1	1.3384057
114	0x3ff5a774	1.9191728
115	0x404d17ee	3.2045856
116	0x3fbcc335	1.4747072
117	0x3fca07b3	1.57836
118	0x3e2dbe84	0.16967207
119	0xbf893ca1	-1.0721627
120	0xc046dba6	-3.1071563
121	0x401946b8	2.3949413
122	0x3e5b7d8d	0.21434613
123	0x3f383cf3	0.71968
124	0xc035c404	-2.8400888
125	0x40330685	2.797273
126	0xbffa94f5	-1.9576708
127	0x3e05644c	0.13026541
128	0x3f634814	0.8878186
129	0xc00ed0df	-2.2314985
130	0x3f21667a	0.6304699
131	0x3fdd0fdc	1.7270465
132	0x3f7cee10	0.98800755
133	0x40ca0bea	6.3139544
134	0xbfd2f242	-1.6480181
135	0x3ef5c77f	0.48003766
136	0x402c78bb	2.6948688
137	0xbe1904df	-0.14943264
138	0x3f398b6e	0.7247838
139	0xc00215dc	-2.0325842
140	0x3f8b408f	1.0879077
141	0x3f0b2cf4	0.5436547
142	0x3f4ca01e	0.7993182
143	0x4085be6d	4.1794953
144	0xbfe56e2c	-1.7924247
145	0xc0180414	-2.375249
146	0xbfe96024	-1.8232465
147	0x3fb152be	1.3853376
148	0xbed98aa5	-0.4248859
149	0xc0a50f8a	-5.158147
150	0x3e94a1fd	0.29029837
151	0x3f79cc8a	0.97577727
152	0xbf943a74	-1.1580338
153	0x400943d1	2.1447642
154	0xbf5764fc	-0.84138465
155	0xbd953f38	-0.07287449
156	0xc048e77f	-3.1391294
157	0x3ec40120	0.38282108
158	0x3ece16cd	0.4025177
159	0xbfab9f0f	-1.3407916
160	0x400066b7	2.0062692
161	0x3fb2ed3d	1.3978649
162	0xbf0efa7f	-0.55850977
163	0x4015a58c	2.3382292
164	0xc060a0e0	-3.509819
165	0x3f23cce1	0.63984495
166	0x3f90e786	1.1320655
167	0x401e186c	2.4702406
168	0xbfd0078c	-1.6252303
169	0xc03a981f	-2.9155347
170	0x40317249	2.7726004
171	0x402b3778	2.6752605
172	0xbf5ada6f	-0.85489553
173	0x3e01c902	0.12674335
174	0xbe4b5b13	-0.19858961
175	0xbf3edf5c	-0.7455957
176	0x3fcc07d3	1.5939888
177	0xc00b0866	-2.1723876
178	0xbe0f4ee4	-0.13994938
179	0x3eb1c06a	0.34717113
180	0xbfe6bc63	-1.8026241
181	0xc01d77a3	-2.460427
182	0x3e5e5940	0.21713734
183	0x3fc83b3e	1.5643079
184	0xbf815f20	-1.0107155
185	0xbebc7c63	-0.3681365
186	0x40056fa1	2.0849383
187	0x3f179342	0.5920907
188	0x3fa35444	1.2760091
189	0x3f9aaa50	1.2083225
190	0xbecf5310	-0.4049306
191	0xc01fab01	-2.4948123
192	0x3fc90fe0	1.570797
193	0xbe8f7d38	-0.28025222
194	0xbf2abd57	-0.6669516
195	0xbf9067ab	-1.1281637
196	0xbe0fdbbf	-0.1404867
197	0xbe88921f	-0.26673982
198	0xbecaec87	-0.3963358
199	0xc0914a2f	-4.5403056
200	0xbdbbffac	-0.09179625
201	0xbfbc2179	-1.4697715
202	0xbd5bed8e	-0.053693347
203	0xbeee74b9	-0.46573427
204	0xbf878e17	-1.0590237
205	0xbf31c401	-0.69439703
206	0x40709246	3.7589278
207	0x3d70fe82	0.058836468
208	0xbde6eed7	-0.11276024
209	0x3ecc37e4	0.3988639
210	0xbfc5124d	-1.539621
211	0xc03ebcd1	-2.9802744
212	0xbf7540cc	-0.95802
213	0xbf5bc55d	-0.8584803
214	0xbd59450d	-0.053044368
215	0xbe641872	-0.2227495
216	0xbfd48cc0	-1.6605453
217	0x4011ffa1	2.2812274
218	0x403b37b2	2.9252744
219	0xc030cd86	-2.7625442
220	0x40934ee8	4.603382
221	0x404b0f6c	3.1728163
222	0xc0706d53	-3.7566726
223	0x400997ef	2.1498983
224	0x3fa40b3a	1.2815926
225	0xbfb5709b	-1.417499
226	0x3ffe2bc8	1.9857111
227	0xc0af44c4	-5.4771442
228	0xbead5032	-0.33850247
229	0xc0087327	-2.1320283
230	0xbfd6e237	-1.6787785
231	0x408940eb	4.2891746
232	0xbf2e587e	-0.6810378
233	0x3fec5fe2	1.8466761
234	0x402fb175	2.745206
235	0x40932a92	4.5989466
236	0xc0640c12	-3.5632367
237	0x3f8aefb9	1.0854408
238	0x3f809d61	1.0048028
239	0xc0506a5f	-3.2564924
240	0xbf221d6c	-0.63326144
241	0xc0c3d145	-6.1192956
242	0x3eccb27b	0.3997992
243	0xbef38439	-0.47561815
244	0xc08c8711	-4.3914876
245	0xbefdc93c	-0.49567592
246	0xc0966b64	-4.700609
247	0xbf8c1a88	-1.0945597
248	0xbf8a459a	-1.0802491
249	0x3f67fcea	0.9062029
250	0x3f31d68c	0.69468
251	0xc0a77e66	-5.2341795
252	0xbff7d289	-1.9361125
253	0xc03af98c	-2.9214811
254	0xbf6408c4	-0.89075875
255	0xc0749e86	-3.8221755

lstm.bias_ih_l1 f4 [40]
0	0x3ec3934f	0.38198325
1	0xbfd46712	-1.6593955
2	0xbfcff789	-1.6247417
3	0xbfc4a9d4	-1.5364327
4	0xc01ff98a	-2.4996057
5	0xc06ba0cf	-3.68169
6	0x3f06cf5a	0.52660143
7	0xbf346cb3	-0.7047836
8	0xbdaafd67	-0.08349114
9	0xbda1c201	-0.078983314
10	0x3e4e6690	0.20156312
11	0x403b769b	2.929114
12	0x40062505	2.0960095
13	0x4070940a	3.7590356
14	0x3fb5d680	1.4206085
15	0x3f861e44	1.0477986
16	0xbf5591a7	-0.8342537
17	0x3faa556b	1.3307317
18	0x400d6070	2.209011
19	0x3fb9bf1c	1.4511447
20	0xbde4db4f	-0.11174642
21	0xbdb8da8e	-0.09026061
22	0xbfb3d74c	-1.4050078
23	0xbf479ebc	-0.77976584
24	0xbfea0536	-1.828284
25	0x3fb7372f	1.4313716
26	0xc0037895	-2.0542347
27	0x3dc840a2	0.09777953
28	0x4009e262	2.1544423
29	0x3fc471df	1.5347251
30	0x3ffd85b5	1.9806429
31	0x3ff05586	1.87761
32	0x3fc76304	1.5577092
33	0x3f623375	0.8835977
34	0x3fab33cb	1.3375181
35	0x402b3863	2.6753166
36	0x3fee441e	1.8614538
37	0x3e27230f	0.16321968
38	0x3fea6ca8	1.8314409
39	0x3f96ea84	1.1790318

lstm.bias_hh_l1 f4 [40]
0	0x3ecb08eb	0.3965524
1	0xbfb85ff9	-1.4404289
2	0xbfbd60a5	-1.4795119
3	0xbf9e719a	-1.2378418
4	0xc01221ce	-2.2833133
5	0xc064ab7b	-3.5729663
6	0x3d77f14a	0.060532846
7	0xbf9a7fa6	-1.2070205
8	0xbee0dc1b	-0.43917927
9	0xbee0411e	-0.4379968
10	0x3e042948	0.12906373
11	0x402913bf	2.6418302
12	0x3feba929	1.8410999
13	0x40592a92	3.3932233
14	0x3fecdec2	1.850548
15	0x3f84f018	1.0385771
16	0xbf0e8601	-0.55673224
17	0x3fea7cc7	1.8319329
18	0x400b9d05	2.1814587
19	0x3fa0b039	1.2553779
20	0xbc894ad3	-0.016759312
21	0xbf19df29	-0.6010614
22	0xbf9ae00a	-1.2099621
23	0xbf64bcf0	-0.89350796
24	0xc004017a	-2.0625901
25	0x3fd2abd6	1.645869
26	0xbff6cb33	-1.9280761
27	0xbdb6ccad	-0.089257576
28	0x4018d65e	2.388084
29	0x3fc3e1e4	1.5303311
30	0x401a5c80	2.4118958
31	0x3fd7fdc7	1.6874322
32	0x3feaba91	1.8338186
33	0x3f702de8	0.9382005
34	0x3fe87058	1.8159285
35	0x403d001f	2.9531324
36	0x3fa854dd	1.3150898
37	0x3e0b14c9	0.13582148
38	0x3fefdaab	1.8738607
39	0x3f9fc1a8	1.2480974

classifier.weight f4 [10, 10]
0	0x3f87605a	1.0576279
1	0xc0217fbc	-2.5234213
2	0x4003e6af	2.0609548
3	0x40432328	3.0490208
4	0x400af8b9	2.1714308
5	0x40d3e1b1	6.6213
6	0xc0113ade	-2.269218
7	0xc065caba	-3.5904984
8	0xbdf1c045	-0.11804251
9	0x3f6a043e	0.91412723
10	0x3e8366e2	0.2566443
11	0x40569ccb	3.35332
12	0xbe666959	-0.22501124
13	0xc0c7b132	-6.2403803
14	0xc0dcd046	-6.900424
15	0xc07244d1	-3.7854502
16	0x4052d407	3.2941911
17	0x400ec955	2.2310383
18	0x3fef44c9	1.8692867
19	0xc0193406	-2.3938003
20	0xbf1dffc4	-0.6171839
21	0x3fdf8516	1.746249
22	0xc0d6503f	-6.6972957
23	0x3fd1be18	1.6386137
24	0xc0fcfe6c	-7.9060574
25	0xbfb7b7d5	-1.4352976
26	0x4091f90c	4.561651
27	0xc0348e49	-2.8211844
28	0xbed4eb1d	-0.41585627
29	0x407a0e99	3.907141
30	0x3fdf7ae6	1.7459381
31	0xc0eab88d	-7.335028
32	0xc0a8b72f	-5.2723613
33	0xbf432949	-0.7623487
34	0xc0a785e5	-5.2350945
35	0xc09334a2	-4.600175
36	0xbfced0d3	-1.6157478
37	0x3f097399	0.53692013
38	0xbfc4ce40	-1.5375443
39	0x401eed67	2.48324
40	0xc0102b63	-2.252648
41	0x401aaf23	2.4169395
42	0x40e80956	7.2511396
43	0x403d8451	2.961201
44	0x3f8c7f97	1.0976437
45	0x3fca0e72	1.5785658
46	0x3f9862f2	1.1905196
47	0x3ffdc2a1	1.9825021
48	0x4028b92b	2.6363018
49	0xbfced820	-1.6159706
50	0x3ffcabbc	1.9739909
51	0xc05fec13	-3.4987838
52	0xc030e66b	-2.7640636
53	0xc0d35db2	-6.6051874
54	0x41294129	10.578408
55	0x3ed9a6c7	0.42510054
56	0xbfc780c9	-1.5586177
57	0x3e98e4de	0.29862112
58	0xbe81e903	-0.25373086
59	0x3fb9bc83	1.4510654
60	0x3e6b32f1	0.22968651
61	0xbe75755c	-0.2397055
62	0x4122b12e	10.168257
63	0xc02ed978	-2.7320232
64	0x40a5bff9	5.179684
65	0x40391ed6	2.892507
66	0x407eaa97	3.979162
67	0xbfa77aa2	-1.30843
68	0xc00a0b79	-2.1569502
69	0xbf929313	-1.1451133
70	0xbfcd991e	-1.6062353
71	0x406e7323	3.7257774
72	0xbf832f92	-1.0248892
73	0x403b24e0	2.9241257
74	0xc1338d18	-11.221947
75	0x3feda6ae	1.8566492
76	0xc08f4224	-4.476824
77	0x3f5f5d12	0.8725139
78	0x3ed166a6	0.40898627
79	0xc04314d8	-3.0481472
80	0x3f21f11e	0.6325854
81	0x402eaf09	2.7294333
82	0x3f8e0f86	1.1098487
83	0x3fc21d39	1.5165168
84	0x4073a785	3.8070996
85	0xc064cc2e	-3.5749621
86	0xbebab408	-0.36465478
87	0xbfe78fda	-1.8090775
88	0xc00ad9a5	-2.169534
89	0x3d5e9d36	0.054349147
90	0xbfb765ba	-1.432792
91	0x3d84ba62	0.06480862
92	0xc08ef35f	-4.4672084
93	0x40551bab	3.3298137
94	0x40ffddc3	7.9958205
95	0x3f89e4c9	1.0772945
96	0xc0322426	-2.7834563
97	0x4022e06e	2.544948
98	0x400ff5e3	2.2493827
99	0xbf593fcc	-0.8486297

classifier.bias f4 [10]
0	0x3ef7a101	0.48365024
1	0x3f9cfdf7	1.2265004
2	0xbf809e70	-1.0048351
3	0x3ff8f342	1.9449236
4	0x4007fd1a	2.124823
5	0x3eae4493	0.34036693
6	0xbf367b65	-0.71282035
7	0x3fed9d40	1.8563614
8	0xc031626d	-2.7716324
9	0xc05777d6	-3.3666892
