model_params/ViT.pth (torch, 878720 bytes, 74 tensors)

pos_embedding f4 [1, 17, 64]
0	0xc050f6cb	-3.265063
1	0x3f7cd91d	0.9876879
2	0xbc9d0592	-0.019167695
3	0x40d67dcb	6.7028556
4	0xbf864883	-1.0490879
5	0x3ffb439d	1.9630009
6	0x400db977	2.2144449
7	0x3e973ce6	0.2953865
8	0x3e8ffa80	0.28120804
9	0x3ebc2334	0.36745608
10	0x3ee613b3	0.44936904
11	0x3f90c5f3	1.1310409
12	0xbf9e6de3	-1.2377285
13	0x3f4993d4	0.7874119
14	0xbe95f839	-0.2929094
15	0xbce21d1e	-0.027601775
16	0x3ec25d01	0.3796158
17	0x3fa82840	1.3137283
18	0x3f604c54	0.8761647
19	0xbf4dd82b	-0.8040797
20	0x3e235213	0.15949278
21	0x3ee1dfaf	0.4411597
22	0x3ee20e67	0.44151613
23	0x3ef6ae7f	0.48180005
24	0xc00558c2	-2.0835423
25	0xbf691bfd	-0.9105833
26	0xbdc5c758	-0.096571624
27	0xc03803f1	-2.8752406
28	0xbe9c4285	-0.305195
29	0xbe9c9ff0	-0.30590773
30	0x3ca723b2	0.020402763
31	0xbe2391d7	-0.15973602
32	0x3f302925	0.6881278
33	0x3f1ab8b9	0.60438114
34	0xbbec62b2	-0.007213914
35	0x3f1f42a3	0.62211055
36	0xc080ab55	-4.0209146
37	0xbf209c57	-0.62738556
38	0xbe4835b1	-0.19551732
39	0xbeaa023e	-0.33204836
40	0xbfa48278	-1.2852316
41	0xbf87c0e7	-1.0605744
42	0x3ed8b40e	0.4232487
43	0x3fb68767	1.4260072
44	0xbfc4f69d	-1.538776
45	0xbea99588	-0.33121896
46	0xbee36b8f	-0.44417998
47	0x3db9dc7c	0.09075257
48	0xbf00fe5b	-0.50388116
49	0x40209e1d	2.5096505
50	0xbfef1d46	-1.8680809
51	0x3eca1b9a	0.39474183
52	0x3fc3c6cc	1.5295043
53	0xbdb1dedd	-0.08685086
54	0x4018cd93	2.3875473
55	0xbf89b730	-1.0759029
56	0xbdadc845	-0.08485464
57	0xbf590aa4	-0.8478186
58	0x3e98ed76	0.29868668
59	0x3f85a75d	1.04417
60	0xc06b41b6	-3.6758857
61	0x3f7ad992	0.97988236
62	0x40169a79	2.3531783
63	0xc03f3117	-2.9873712
64	0xbfd39968	-1.6531191
65	0x40022f83	2.03415
66	0xbfa2ee54	-1.2728982
67	0xbf847251	-1.0347387
68	0xbf092ac3	-0.53580874
69	0xc0676971	-3.6158106
70	0xc0010826	-2.0161223
71	0x3f1e79ae	0.6190442
72	0x3ea11d30	0.3146758
73	0x3e8036c1	0.25041774
74	0x3eb8a345	0.36062065
75	0x3fc8f557	1.5699872
76	0xc0379fb8	-2.8691235
77	0xc02669d1	-2.6002085
78	0x4004bb25	2.0739224
79	0x3daff1cc	0.08591041
80	0x405a401d	3.4101632
81	0x3ea5f477	0.32413074
82	0x3faeaf15	1.3647181
83	0xbf94db58	-1.1629438
84	0xbd2c32a2	-0.042040475
85	0x3f6c18e2	0.9222547
86	0xbf7d46a1	-0.98935896
87	0x3fa54b52	1.2913611
88	0x3f84e1d7	1.0381421
89	0x403552c3	2.8331764
90	0xbfe523fb	-1.7901605
91	0x3e9e78af	0.3095145
92	0x3e3c0e20	0.18364763
93	0xc0399f79	-2.9003584
94	0x408be5ab	4.3717856
95	0xc00fb536	-2.2454352
96	0xbeb5f27e	-0.3553657
97	0x40366391	2.849827
98	0x3d3b17f7	0.04567715
99	0x3ec1adde	0.37827963
100	0x3f90dff0	1.131834
101	0xc02cb494	-2.6985216
102	0x3fbdecc5	1.4837881
103	0x40126be2	2.2878346
104	0xc00590ac	-2.086955
105	0xc00bfdee	-2.1873736
106	0xbc15c2b6	-0.009140661
107	0x3fa0b08e	1.255388
108	0x40111265	2.2667477
109	0xc003410e	-2.0508456
110	0xc0059ad8	-2.087576
111	0x402f2f5b	2.7372653
112	0x40227f83	2.5390327
113	0xbe4cbc5d	-0.1999373
114	0xc08ca584	-4.3952045
115	0x3f020be3	0.5079939
116	0xbefefd9e	-0.4980287
117	0x40463e33	3.0975463
118	0x3de4649a	0.11152001
119	0x3e2ecdc8	0.17070687
120	0xbe0c57a5	-0.13705309
121	0xbf0ebb4b	-0.55754536
122	0xbffb29a0	-1.9622078
123	0x3fd3cc5b	1.6546739
124	0xbe80b5f1	-0.2513881
125	0xc014c2a6	-2.3243804
126	0x40694e7c	3.6454153
127	0xbeca0c2a	-0.39462405
128	0xc000ff4b	-2.0155818
129	0x408cbf87	4.39838
130	0x3e849fc1	0.25903133
131	0x3fe13fbd	1.7597576
132	0xc00faaff	-2.2448118
133	0x3e693170	0.22772765
134	0xbe785d53	-0.2425435
135	0x3ea3184c	0.31854475
136	0xbefc0893	-0.49225292
137	0xbfef197e	-1.8679655
138	0xbf2a3607	-0.6648869
139	0x402b425d	2.6759255
140	0x3f379541	0.7171212
141	0xbfc53b95	-1.5408808
142	0xbf532e21	-0.8249226
143	0x3e9bd022	0.3043223
144	0xbfead2d1	-1.8345586
145	0x3f5000b9	0.812511
146	0x3f9bdd04	1.2176824
147	0xbfee3b87	-1.8611916
148	0x3f044fbd	0.5168417
149	0x3f1b6c6f	0.6071233
150	0x3fce5c97	1.6122006
151	0x3f818375	1.0118243
152	0x400fd7f5	2.247556
153	0xbec2ffc4	-0.3808576
154	0xbef45244	-0.47719014
155	0xbeebe105	-0.46070114
156	0x4084bde6	4.148181
157	0x3fb2e08b	1.3974775
158	0xbfc977b9	-1.5739661
159	0x400ecb38	2.2311535
160	0x3ea684ae	0.32523102
161	0xbf7a5157	-0.97780365
162	0xbfc6c62c	-1.5529227
163	0x3f7713f6	0.9651483
164	0xbf9ed80d	-1.2409683
165	0xbfd8c1e1	-1.6934167
166	0xbe6eb5cc	-0.23311538
167	0xc0ae9397	-5.4555163
168	0x3fec18cc	1.8445067
169	0x3fbc492f	1.4709834
170	0x4052aa9c	3.2916632
171	0x3fd24036	1.6425846
172	0x3b5611f0	0.00326645
173	0xbef317f3	-0.4747921
174	0xbfda39b3	-1.7048858
175	0xbfcfcc43	-1.6234211
176	0xbe9dd309	-0.3082507
177	0x3f2e5029	0.68091065
178	0xbfd87276	-1.6909931
179	0x3efd47db	0.49468884
180	0xbeeace7b	-0.45860657
181	0x3e886023	0.26635846
182	0xc03c8d4a	-2.9461236
183	0x4012da90	2.29459
184	0x3f2e7da0	0.6816044
185	0xbe33373f	-0.17501543
186	0xbf4a9f97	-0.79149765
187	0xbfc838a4	-1.5642285
188	0x3e3fa232	0.18714216
189	0x3f8c783c	1.0974193
190	0x408a8e83	4.3298965
191	0x3f78061d	0.9688433
192	0x4009adab	2.1512249
193	0xbee9823c	-0.45607173
194	0xbfc4606b	-1.5341924
195	0x3f09ae0c	0.537812
196	0xbe7c2698	-0.24624097
197	0xbf8981ba	-1.0742714
198	0x3fa785e7	1.3087739
199	0x400fecff	2.24884
200	0x4038c1de	2.8868327
201	0xc0380157	-2.8750818
202	0x3bff4ebc	0.0077913683
203	0x3db1409f	0.086549036
204	0x3fe52ee3	1.7904934
205	0x3ebbf84e	0.3671288
206	0x402af4e6	2.6711974
207	0x3f2e0ef8	0.6799159
208	0xbf92de6f	-1.1474131
209	0x3f936cc3	1.1517566
210	0xbfe1d1e5	-1.764218
211	0xbfccd868	-1.6003542
212	0xc02d7670	-2.7103539
213	0x3ff3771e	1.9020727
214	0x3f862c9b	1.0482363
215	0x3fd71592	1.6803458
216	0xbe36a09f	-0.1783471
217	0x3f5bb160	0.8581753
218	0xbf77ef84	-0.96849847
219	0xbf2ebc0b	-0.6825568
220	0x4007e9cf	2.1236455
221	0xc0080997	-2.1255853
222	0xbe88c1c9	-0.26710346
223	0xc043ad1a	-3.0574403
224	0x40243ba7	2.566141
225	0x3e895f80	0.26830673
226	0x3fe90d19	1.8207122
227	0x3fdd20ee	1.7275674
228	0xbfc68d88	-1.5511942
229	0xc026fa4d	-2.6090271
230	0x3e87d136	0.26526803
231	0xbfa3ae74	-1.2787614
232	0x402d704c	2.709979
233	0xbe2ebf6a	-0.17065206
234	0x3f7ec7f0	0.9952383
235	0xbe2b9124	-0.16754586
236	0xc057e55a	-3.3733735
237	0x403ac86e	2.9184833
238	0xc01122f6	-2.2677588
239	0xc0491f10	-3.142521
240	0xc0911a66	-4.5344725
241	0x3fc8694c	1.5657134
242	0x4001b73a	2.0268083
243	0xbe909e8a	-0.28245956
244	0xbe8c9f4c	-0.27465284
245	0x3f02043d	0.5078772
246	0xc006662e	-2.0999866
247	0x3f87489d	1.0569035
248	0xbf83d667	-1.0299805
249	0xbfa552fe	-1.2915952
250	0x3f7b79a8	0.9823251
251	0x40463d29	3.097483
252	0x3fb33937	1.4001836
253	0xbed6c0ad	-0.41943875
254	0xbfa93eec	-1.3222327
255	0xc068bdc0	-3.6365814

cls_token f4 [1, 1, 64]
0	0xc092e4e1	-4.5904393
1	0x3eb2fb94	0.34957564
2	0x3e97e555	0.29667154
3	0x40ff7554	7.9830723
4	0xc03afc49	-2.9216483
5	0x40068e10	2.1024208
6	0xbf171eac	-0.59031177
7	0xbe23e4e3	-0.16005282
8	0xbfba146e	-1.4537485
9	0x3f1f053c	0.6211736
10	0xbf0e6f4f	-0.55638593
11	0xbddd8d8d	-0.10818014
12	0xbfb1cd47	-1.3890771
13	0x402c2500	2.6897583
14	0xbf1263ba	-0.5718342
15	0xbe706de1	-0.23479415
16	0xbf2bbaaa	-0.670817
17	0x4014ce51	2.3250926
18	0xbe83fc78	-0.25778556
19	0xbfaa7cf4	-1.3319383
20	0x3ed194dc	0.40933883
21	0x3f22bdf4	0.63571095
22	0x3f6f6a89	0.93521935
23	0x3f5df2bb	0.866985
24	0xbd80316f	-0.06259429
25	0xbf967d9c	-1.1757083
26	0xbe5d9f2d	-0.21642752
27	0xbfce0461	-1.6095086
28	0xbf5915fb	-0.84799165
29	0x3ecc8611	0.39946035
30	0x3f17bde0	0.592741
31	0x3f01f8e9	0.5077043
32	0x3ff19d9c	1.8876224
33	0xbffb2241	-1.9619828
34	0xbfc37458	-1.526988
35	0xbf35d523	-0.71028346
36	0xc069ff88	-3.6562214
37	0x3f9626d9	1.1730605
38	0xbdd58f69	-0.10427744
39	0x400b99bb	2.181258
40	0xbfdf43fb	-1.7442621
41	0x3fc6121e	1.5474279
42	0xbffe58b4	-1.987082
43	0x3fd10813	1.6330589
44	0x3f15ce15	0.5851758
45	0x4037fdd9	2.8748686
46	0xbff1849e	-1.8868597
47	0xc00d6fdd	-2.2099526
48	0xbf8202da	-1.015712
49	0x3f91864a	1.1369107
50	0xbf43f4d6	-0.76545465
51	0x3f85ec87	1.0462807
52	0x3f933e3a	1.1503365
53	0xbf0e90c3	-0.5568964
54	0x3fb79abd	1.4344097
55	0x3e91443b	0.28372368
56	0xbe2ad709	-0.16683592
57	0xbe7a7f5e	-0.24462649
58	0xbfd9c482	-1.7013094
59	0xc007c5d2	-2.121449
60	0xc04246aa	-3.035563
61	0x3f7f269b	0.9966828
62	0x3ef9df1e	0.48803037
63	0xc01991ff	-2.399536

patch_to_embedding.weight f4 [64, 49]
0	0x3fa58705	1.293183
1	0xbf785df2	-0.9701835
2	0xbe861019	-0.26184157
3	0xbe5458cf	-0.20737003
4	0x3e065001	0.13116457
5	0x3e803caa	0.25046283
6	0x3e341363	0.1758552
7	0x3f071e06	0.5278019
8	0xbf3e9ab4	-0.7445481
9	0x3c3dad6f	0.011576994
10	0xbe2fbeb9	-0.17162599
11	0xbf2dc980	-0.6788559
12	0xbe9963ac	-0.29958856
13	0x3f32b9d0	0.6981478
14	0x3e9e9784	0.30974972
15	0xbeb0a05f	-0.34497353
16	0xbf50c51a	-0.81550753
17	0xbf2b8351	-0.6699725
18	0xbf2b3c3b	-0.6688878
19	0xbe89c221	-0.2690592
20	0xbc74eb8f	-0.01494874
21	0x3f2fc403	0.68658465
22	0xbf3a5977	-0.7279276
23	0xbf4c9093	-0.799081
24	0xbf471562	-0.77767
25	0xbe93f247	-0.2889578
26	0xbd762d84	-0.060102
27	0xbf0da29a	-0.55326235
28	0x3f591976	0.84804475
29	0xbf147750	-0.57994556
30	0x3e3b1e9c	0.18273395
31	0x3eccf279	0.40028742
32	0x3e20f8b3	0.15719871
33	0x3f8be9c6	1.0930717
34	0x3f0e7dc8	0.55660677
35	0x3f7d489f	0.98938936
36	0xbf74fca8	-0.9569802
37	0xbe97a7aa	-0.29620105
38	0x3d0fe8de	0.03513419
39	0xbe64d67a	-0.22347441
40	0x3f6a4524	0.9151175
41	0x3e0116e6	0.12606391
42	0x40041240	2.063614
43	0x3f9f7fa2	1.2460825
44	0x3f314e7a	0.6926037
45	0x3f30daac	0.69083667
46	0xbe2da9dd	-0.16959329
47	0xbe4dde14	-0.20104247
48	0xbfc1c356	-1.5137737
49	0xbb8e39b8	-0.0043403767
50	0xbf9418a0	-1.1570015
51	0xbfbc7b92	-1.4725211
52	0xbe4dae0d	-0.20085926
53	0xbeb6ec63	-0.35727224
54	0x3efb76c3	0.49114046
55	0x3e55f1cd	0.20893021
56	0x40243cef	2.566219
57	0x3ff2a0c9	1.8955318
58	0x3e47a51a	0.19496575
59	0xbe638f6c	-0.2222268
60	0x3f40216d	0.75051004
61	0x3f8941a6	1.0723159
62	0x3ebdee86	0.3709604
63	0x3faad8f5	1.334746
64	0x3c854f7e	0.016273256
65	0xbf094103	-0.53614825
66	0xbf0d671b	-0.5523545
67	0xbefc1772	-0.49236637
68	0x3d1959e8	0.037439257
69	0x3e9193a9	0.28432968
70	0x3d8d5819	0.06901569
71	0xbe619423	-0.22029166
72	0x3c885af1	0.016644927
73	0x3de00be3	0.10939767
74	0xbe3d9289	-0.1851293
75	0xbf2607de	-0.64855754
76	0x3f074244	0.5283549
77	0xbf349e00	-0.7055359
78	0xbdda47d3	-0.10658231
79	0xbdd2e59a	-0.10297699
80	0xbefe0acf	-0.4961762
81	0xbe1302a3	-0.14356475
82	0xbf5ae757	-0.85509247
83	0xbf16b7a5	-0.5887397
84	0xbf294a48	-0.6612897
85	0xbecbcf68	-0.39806676
86	0xbf130417	-0.57428116
87	0x3f5313e0	0.824522
88	0x3eb0347f	0.3441505
89	0x3e93c6f7	0.28862736
90	0x3f378e8b	0.7170188
91	0x3eb6a296	0.35670918
92	0x3daaef9d	0.08346484
93	0x3edb2fc8	0.42809892
94	0x3dddc2ef	0.10828196
95	0x3e9f294d	0.31086197
96	0xbede53d4	-0.4342333
97	0x3e031fe4	0.12805134
98	0xbe5e8a17	-0.21732365
99	0xbdf90dcf	-0.12160837
100	0x3db1d9af	0.08684098
101	0x3db73c2b	0.08947023
102	0xbebe3b44	-0.3715459
103	0xbf0c98a1	-0.54920393
104	0xbf56f22d	-0.8396328
105	0xbee656aa	-0.44987994
106	0xbd022579	-0.031774018
107	0x3d58bc7b	0.052914124
108	0x3df0aa13	0.11751189
109	0x3d999e42	0.075008884
110	0x3e9309b4	0.2871834
111	0xbf499589	-0.787438
112	0x3f17907d	0.59204847
113	0x3f157945	0.5838817
114	0x3ef8ab59	0.48568228
115	0xbdc0a913	-0.09407248
116	0x3f293cd6	0.66108453
117	0x3f123c32	0.571231
118	0xbf090a99	-0.53531796
119	0x3f49123f	0.78543466
120	0xbea478db	-0.32123455
121	0x3e03b17e	0.12860677
122	0x3f1703be	0.58990085
123	0x3f89d953	1.0769447
124	0x3f7d684e	0.9898728
125	0x3f1a384b	0.60242146
126	0x3ed2665e	0.41093725
127	0x3e2d52e5	0.16926153
128	0x3f0cf46c	0.5506046
129	0x3fb13a7a	1.3845971
130	0x3f8449ea	1.0335057
131	0x3fbd38dc	1.4782977
132	0x3fbe77cf	1.4880313
133	0xbd895acb	-0.067067705
134	0x3eb61bea	0.35568172
135	0x3f2cc0e0	0.67481804
136	0x3f653778	0.89537764
137	0x3f211544	0.62923074
138	0x3f96bf2d	1.1777092
139	0x3d90ddba	0.07073541
140	0xbf9deb14	-1.2337365
141	0xbfb8f859	-1.445079
142	0xbef6e1b5	-0.48219076
143	0xbd2ab29f	-0.041674253
144	0x3f0a1db7	0.5395159
145	0xbda04d70	-0.0782727
146	0xbf1109b3	-0.56655425
147	0x3e223bd1	0.1584313
148	0x3fb4fbe1	1.4139367
149	0x3fd64050	1.6738377
150	0x400072b6	2.0070014
151	0x3f718e4a	0.9435774
152	0x3f90f9dc	1.1326251
153	0x3fb5240f	1.4151629
154	0xbfcbe2b5	-1.592856
155	0xbec3fb5c	-0.3827771
156	0xbdb1919f	-0.08670353
157	0x3f278933	0.65443724
158	0x3f26758e	0.65023124
159	0x3ebe1f11	0.37133077
160	0x3f415e38	0.7553439
161	0xbf8e2c45	-1.110726
162	0x3e428692	0.18996647
163	0x3df91fce	0.121642694
164	0x3e43e649	0.19130816
165	0x3f6f0b22	0.9337636
166	0x3f3930ea	0.7234026
167	0x3f68ba86	0.9090961
168	0xbfc67ccd	-1.5506836
169	0xbf0e3594	-0.55550504
170	0xbd35522a	-0.04426781
171	0x3f0ba07d	0.5454176
172	0x3edb5018	0.42834544
173	0x3e2163f2	0.15760782
174	0x3e146abb	0.1449384
175	0xbfd09a36	-1.6297061
176	0x3dcdfe64	0.10058287
177	0xbf86d1db	-1.0532793
178	0xbf0de01f	-0.55420107
179	0x3e0aaf3c	0.13543409
180	0xbec61daa	-0.38694507
181	0xbe10f7fa	-0.14157096
182	0xbf87a807	-1.0598153
183	0xba86940c	-0.001026751
184	0xbf556c74	-0.8336861
185	0xbe80d963	-0.25165853
186	0x3d1c6c12	0.038189
187	0x3ea7a93a	0.32746297
188	0xbf59f849	-0.8514448
189	0xbf8fcef4	-1.1235032
190	0x3e9fcba0	0.3121004
191	0x3f270df7	0.65255684
192	0x3d919976	0.071093485
193	0xbe9a8204	-0.3017732
194	0xbf904172	-1.1269972
195	0xbfb03298	-1.376544
196	0xbd7186c3	-0.05896641
197	0x3e85741e	0.26065153
198	0x3e934809	0.28765896
199	0x3ef7f3ca	0.48428184
200	0x3f4f2c0d	0.8092659
201	0x3da2cb37	0.079489164
202	0xbfb6a311	-1.4268514
203	0xbfcd4274	-1.6035905
204	0xbee4c4e7	-0.44681475
205	0xbe4199a0	-0.1890626
206	0x3d654fca	0.055984296
207	0x3d83debd	0.06438968
208	0x3e60a72b	0.2193877
209	0xbf0020ce	-0.50050056
210	0xbf123b2a	-0.5712153
211	0xbe91d5ba	-0.28483373
212	0xbe21307c	-0.15741152
213	0xbee56977	-0.44807026
214	0xbf1c27d8	-0.60998297
215	0xbf068bcf	-0.5255708
216	0xbc2e15e3	-0.010625335
217	0x3f2b161e	0.66830623
218	0x3f82c09f	1.0215033
219	0x3f1b1449	0.6057783
220	0x3e83fabc	0.25777233
221	0xbcec32c0	-0.028832793
222	0xbec783e6	-0.38967818
223	0x3e142e51	0.14470793
224	0x3f72bfa8	0.94823694
225	0x3f241380	0.64092255
226	0x3f8079ec	1.0037208
227	0x3fd45a18	1.6589994
228	0x3f3c42d5	0.7353948
229	0x3ebec52a	0.372598
230	0xbe913a05	-0.28364578
231	0x3f0e7657	0.5564932
232	0x3f421b9b	0.7582337
233	0x3f5a0e9d	0.8517855
234	0x3f6fbf1c	0.93650985
235	0x3eb349a1	0.35017112
236	0x3ed413c5	0.41421333
237	0xc000532e	-2.005077
238	0xbf553b9b	-0.83294076
239	0xbf93f9f0	-1.156065
240	0xbfc3f468	-1.5308962
241	0xbf645239	-0.8918796
242	0xbf46ba96	-0.7762846
243	0x3ec20344	0.37893116
244	0xbec1b9a9	-0.3783696
245	0xbe0a8a39	-0.1352929
246	0x3e5036b5	0.20333369
247	0xbeba2b3d	-0.36361113
248	0xbed42a24	-0.414384
249	0x3f82326f	1.0171641
250	0x3fa038a8	1.251729
251	0x3f8cc408	1.0997324
252	0xbe9b90f2	-0.30384022
253	0x3e527515	0.20552476
254	0xbeab5df2	-0.33470112
255	0xbf90982c	-1.1296439

patch_to_embedding.bias f4 [64]
0	0xbf7514cc	-0.9573486
1	0x3eb6abe4	0.35678017
2	0x3b8db999	0.0043251035
3	0xbf89be9c	-1.0761294
4	0xbf66e916	-0.9019941
5	0x3ddcbae4	0.10777834
6	0x3f478911	0.7794352
7	0xbdcdc782	-0.10047819
8	0xbe9cbd1f	-0.30613038
9	0x3eaccebe	0.33751482
10	0x3f815950	1.0105381
11	0xbe3aa005	-0.18225105
12	0xbe982048	-0.2971213
13	0x3f627619	0.8846145
14	0x3ed8c0cc	0.42334592
15	0xbecd4b56	-0.4009654
16	0xbf32b952	-0.69814026
17	0xbede8c58	-0.4346645
18	0xbd1c43a9	-0.038150463
19	0xbf908cc0	-1.1292953
20	0x3d814fb5	0.06314031
21	0x3e64acd9	0.22331561
22	0x3eb69961	0.35663894
23	0x3ea26009	0.31713894
24	0xbea0f399	-0.3143585
25	0xbe7659f0	-0.24057746
26	0xbf2d07f8	-0.67590284
27	0x3f07167a	0.5276867
28	0xbea9cc55	-0.33163705
29	0x3e65d988	0.22446263
30	0x3fea734e	1.8316438
31	0x3e90e936	0.28302926
32	0xbed1e46f	-0.40994594
33	0x3f0006fe	0.5001067
34	0xbeac0de6	-0.33604354
35	0x3eec1bdc	0.46115005
36	0x3f9044af	1.127096
37	0x3ea6ffe0	0.32617092
38	0x3edd8749	0.43267277
39	0xbf10e59e	-0.5660037
40	0xbefe07f3	-0.4961544
41	0xbe23ffd2	-0.16015556
42	0xbf63121c	-0.8869951
43	0x3e8b5846	0.27215785
44	0x3e45a958	0.19302881
45	0x3d9544ff	0.072885506
46	0xbf4d126f	-0.8010625
47	0x3e6b6833	0.22988968
48	0xbd809806	-0.06278996
49	0x3f6529e7	0.8951706
50	0x3d34af48	0.044112474
51	0x3f846c47	1.0345544
52	0xbe3233ec	-0.17402619
53	0x3e18c945	0.14920528
54	0x3eaf6789	0.3425868
55	0x3cb44854	0.022007145
56	0x3fc10949	1.5080959
57	0xbe8cd0fa	-0.27503186
58	0xbf589bf1	-0.8461295
59	0xbf115cb2	-0.56782067
60	0xbe90cb7c	-0.28280246
61	0x3fb80568	1.437665
62	0x3f1525a4	0.5826056
63	0xbf0084be	-0.5020255

transformer.layers.0.0.fn.norm.weight f4 [64]
0	0xbd03c71b	-0.032172304
1	0x3e6131b3	0.21991615
2	0x3efde342	0.49587446
3	0x3e3d364f	0.18477748
4	0x3e098596	0.13429865
5	0x3e30c138	0.17261207
6	0x3e862d36	0.26206368
7	0x3e751f42	0.23937705
8	0x3d7eb0fd	0.062180508
9	0x3ec0fbcc	0.37692106
10	0x3e960b4b	0.2930549
11	0x3e48fe58	0.19628274
12	0x3e33a934	0.17545015
13	0x3eb19e61	0.34691146
14	0x3ef50c54	0.47860968
15	0x3e9017ff	0.28143308
16	0x3ee8726b	0.45399794
17	0x3e830daf	0.25596377
18	0x3eb96249	0.36207798
19	0x3ec307d6	0.38091916
20	0x3f08f2d1	0.5349551
21	0x3efbb45e	0.49161047
22	0x3eb276ab	0.3485616
23	0x3e9753ea	0.2955621
24	0x3eb41a87	0.3517649
25	0x3e73299b	0.2374634
26	0x3e8c94f1	0.27457383
27	0x3d4c9469	0.049946222
28	0x3d10076c	0.035163328
29	0x3e980046	0.2968771
30	0x3e86ca28	0.26326108
31	0x3c8729b2	0.016499374
32	0x3e5e0533	0.21681671
33	0x3eb548f5	0.35407224
34	0x3f1ee6f2	0.62071145
35	0x3ef5bea3	0.47997007
36	0x3cd9d43b	0.026590457
37	0x3d9f4945	0.07777647
38	0x3eae7e00	0.34080505
39	0x3ed8cb41	0.4234257
40	0x3e567364	0.20942456
41	0x3eaf145a	0.34195215
42	0x3e9b6446	0.3034994
43	0x3e449762	0.19198373
44	0x3ecc37c7	0.39886305
45	0x3f0953e4	0.5364363
46	0x3ef3cec7	0.47618696
47	0x3f09a151	0.53761774
48	0x3e1dad8d	0.15398236
49	0x3e1aaa63	0.1510406
50	0x3e7303e0	0.23731947
51	0x3f04b9aa	0.518458
52	0x3ee56a59	0.448077
53	0x3e4fd445	0.20295818
54	0x3d320337	0.043460097
55	0x3ee39de2	0.44456393
56	0x3db1beec	0.086789936
57	0x3f1cee1c	0.61300826
58	0x3eb93338	0.3617189
59	0x3e034ef7	0.12823091
60	0x3cf62101	0.030045034
61	0x3ed105d2	0.40824753
62	0xbc184b5b	-0.00929531
63	0x3ea65264	0.32484734

transformer.layers.0.0.fn.norm.bias f4 [64]
0	0xb84c08d9	-4.864563e-05
1	0xbd899400	-0.06717682
2	0xbe3bdc17	-0.18345676
3	0x3bd38793	0.0064553707
4	0x3d564ec9	0.05232123
5	0xbcde3c24	-0.027128287
6	0xbdd6aaa7	-0.10481768
7	0xbd06c64e	-0.03290396
8	0xbc9c8e04	-0.019110687
9	0xbdde0e8a	-0.10842617
10	0xbdfd0f1f	-0.123564
11	0x3c1f7b3c	0.009733971
12	0x3dd4c871	0.10389794
13	0xbd938a73	-0.072041415
14	0xbd54eb9a	-0.0519825
15	0x3b5c4061	0.0033607709
16	0x3d5f52d0	0.054522336
17	0x3cbcb807	0.02303697
18	0x3cf08e10	0.029364616
19	0x3e2c453f	0.1682329
20	0xbd3991c5	-0.045305032
21	0xbd3eb47b	-0.04655884
22	0xbd475e99	-0.0486742
23	0xbd0adb62	-0.033900626
24	0x3d66fc67	0.056393053
25	0x3e074b83	0.13212399
26	0x3e1e05aa	0.15431848
27	0xbc4f454a	-0.012650797
28	0xbc1fcbe9	-0.009753206
29	0xbc7688ef	-0.015047296
30	0xbdfb4f08	-0.122709334
31	0xbc6013f4	-0.013676632
32	0xbcd6c95e	-0.026219066
33	0xbd1c41a5	-0.03814854
34	0x3e869f35	0.2629334
35	0xbe0d711e	-0.13812682
36	0xbca0ab09	-0.019612806
37	0xbcad5f2f	-0.021163551
38	0xbd523a89	-0.051325355
39	0x3c96fd71	0.018431397
40	0x3e387c69	0.18016209
41	0x3d4155ba	0.047200896
42	0x3e17deec	0.14831132
43	0xbd4bd3da	-0.049762584
44	0xbd5b8a35	-0.0535986
45	0xbe30f67b	-0.17281525
46	0x3ebb9cc7	0.3664305
47	0x3c235dba	0.009971077
48	0x3ce051a3	0.027382677
49	0xbd638a84	-0.05555202
50	0x3cbb41ed	0.022858584
51	0xbe905a01	-0.28193668
52	0xbe1d502d	-0.15362616
53	0x3c464b26	0.012102878
54	0x3d1d91fa	0.038469292
55	0x3d54c7c7	0.051948335
56	0xbd8d9e98	-0.06915015
57	0x3d9b98a8	0.07597476
58	0x3e15c267	0.1462494
59	0x3b89dc96	0.004207204
60	0x3d32863d	0.04358505
61	0xbe84c2e4	-0.2592994
62	0x3d111bcf	0.03542691
63	0x3dd713e2	0.10501839

transformer.layers.0.0.fn.fn.to_qkv.weight f4 [192, 64]
0	0x3e5ac413	0.21363859
1	0xbd4d7a15	-0.050165255
2	0x3db88fc0	0.09011793
3	0x3e201617	0.15633427
4	0x3f126fc5	0.57201797
5	0x3dc1baa2	0.094594255
6	0xbe425036	-0.1897591
7	0xbf40ddf9	-0.75338703
8	0xbe2cec1b	-0.16886942
9	0x3eb61ee9	0.35570458
10	0x3d9fa6e5	0.077955045
11	0x3d0f8844	0.035042062
12	0xbf4960b7	-0.786632
13	0x3edb1ed5	0.4279696
14	0xbea43b79	-0.32076624
15	0xbd6222ab	-0.055208843
16	0x3eb7b322	0.35878855
17	0x3dd61fd6	0.10455291
18	0x3f53ed97	0.8278441
19	0x3f94615e	1.1592214
20	0x3e608d2f	0.21928857
21	0xbf51d85e	-0.81970775
22	0xbf280a24	-0.65640473
23	0xbf7bf6df	-0.9842357
24	0xbc87936e	-0.016549792
25	0x3e528be0	0.2056117
26	0x3ed81394	0.42202437
27	0xbe88bef1	-0.26708177
28	0xbd953708	-0.07285887
29	0xbdbac984	-0.09120467
30	0xbf032da9	-0.51241547
31	0x3ea8deff	0.32982633
32	0x3e1f12d8	0.15534532
33	0x3e9034bb	0.2816523
34	0xbccdbee5	-0.02511544
35	0xbeb54951	-0.35407498
36	0x3e9a43ee	0.3012995
37	0x3e30b279	0.17255582
38	0xbf926e9e	-1.1440008
39	0x3f838d23	1.0277447
40	0xbf15aa31	-0.58462816
41	0xbf79d442	-0.97589505
42	0xbdeaedfa	-0.11471172
43	0x3f5bbc48	0.8583417
44	0x3eade756	0.33965558
45	0xbd29ac56	-0.041424118
46	0x3d8dfef1	0.06933392
47	0xbd03c091	-0.032166068
48	0x3eb57ea1	0.35448173
49	0xbdedd4df	-0.116128676
50	0xbec8f8cb	-0.39252314
51	0x3ebf863a	0.37407094
52	0x3ebca694	0.3684584
53	0x3ddabe41	0.10680819
54	0x3dc02fe7	0.09384137
55	0xbedc6eaf	-0.43053195
56	0x3f2e8284	0.681679
57	0x3f000591	0.50008494
58	0xbef8c540	-0.4858799
59	0x3f0a60f2	0.54054177
60	0x3d1ae614	0.037817076
61	0xbe808efd	-0.2510909
62	0xbe46031e	-0.19337127
63	0xbd8e177c	-0.06938073
64	0x3ee7583c	0.45184505
65	0x3e6a2252	0.22864655
66	0xbedc4e15	-0.43028322
67	0x3da39c6b	0.07988819
68	0xbeb29e49	-0.34886387
69	0x3d6fc7ac	0.05854003
70	0xbdd5ff1c	-0.10449049
71	0x3e9d8c93	0.30771312
72	0xbf0ada26	-0.5423912
73	0x3ec1918a	0.3780635
74	0x3d9372ef	0.07199656
75	0x3f245c99	0.6420379
76	0x3d99ae09	0.07503898
77	0x3db94567	0.090464406
78	0x3ecc7d7b	0.39939484
79	0x3eefa3c6	0.46804637
80	0xbd73980e	-0.059471183
81	0xbe6ff692	-0.23433903
82	0xbe45527f	-0.19269751
83	0xbf4083e3	-0.75201243
84	0xbf3ece94	-0.74533963
85	0x3e9c6c18	0.3055122
86	0xbf15e5c1	-0.585537
87	0x3dd95256	0.106114075
88	0xbe3fa1b5	-0.1871403
89	0xbea6d998	-0.32587886
90	0x3c395cd4	0.011313636
91	0xbddb340f	-0.10703289
92	0x3e823b14	0.25435698
93	0x3ca4fe76	0.020140868
94	0x3f00113d	0.50026304
95	0x3f2bfec0	0.6718559
96	0xbe1b552e	-0.15169212
97	0xbecb640d	-0.3972477
98	0x3ee5aec8	0.4485991
99	0x3ebb3d8f	0.36570403
100	0xbde71831	-0.11283911
101	0xbde28abe	-0.11061619
102	0x3fa62bd3	1.2982124
103	0xbe12641a	-0.14295998
104	0xbcb32883	-0.021869903
105	0x3f8d4525	1.1036726
106	0xbdfe3ca2	-0.124139085
107	0xbe9fda0f	-0.31221053
108	0xbf25f5b6	-0.6482805
109	0x3f56e643	0.839451
110	0xbd9c2da2	-0.07625891
111	0x3d21cd1e	0.039502256
112	0x3d4394dc	0.047749385
113	0x3e5fbf06	0.21850213
114	0xbd222fb7	-0.039596286
115	0x3e9248ba	0.2857111
116	0x3f1c714f	0.61110395
117	0xbe9ab729	-0.30217865
118	0x3e67e4d2	0.22645882
119	0xbe1f98ec	-0.15585679
120	0xbf465fbd	-0.77489835
121	0x3ef56eeb	0.47936186
122	0xbed02d24	-0.4065944
123	0xbe1d9a07	-0.15390788
124	0xbe529163	-0.20563273
125	0xbf18a558	-0.59627295
126	0xbe9cf03a	-0.30652028
127	0x3e1c458a	0.15260902
128	0x3e1e2a11	0.15445735
129	0xbe0aa2d8	-0.13538682
130	0xbf4e713f	-0.8064155
131	0x3ee6d3ae	0.45083374
132	0x3e281d17	0.16417347
133	0xbd8010f8	-0.062532365
134	0x3f4cdcfe	0.8002471
135	0xbe2dc43d	-0.1696939
136	0x3e78f38f	0.2431166
137	0xbf2bb7ec	-0.6707752
138	0xbe983473	-0.29727516
139	0xbe47eb53	-0.19523363
140	0x3ea57d7c	0.323223
141	0x3eaaa14b	0.33326182
142	0xbe0051d7	-0.1253122
143	0x3f6364d9	0.88825756
144	0x3ee34680	0.44389725
145	0x3f08e850	0.5347948
146	0xbe8e27f2	-0.2776485
147	0xbd03d73b	-0.03218768
148	0xbf1b65ff	-0.6070251
149	0x3fa5ec9d	1.2962834
150	0x3f5f6baa	0.8727366
151	0x3e6b9296	0.23005137
152	0xbeaddafa	-0.33956128
153	0xbf12261f	-0.5708942
154	0xbdfa2e9f	-0.122159235
155	0xbdeeffbf	-0.116698734
156	0xbb3155ba	-0.0027059154
157	0xbf67c2bb	-0.9053151
158	0xbe952333	-0.29128417
159	0xbee98a6b	-0.45613417
160	0x3f342176	0.7036356
161	0xbe97b678	-0.296314
162	0x3f90935f	1.1294974
163	0xbdc82b4a	-0.09773882
164	0xbe3ed249	-0.18634905
165	0x3c30d8ed	0.010793907
166	0xbf0a7ac9	-0.54093605
167	0x3e9fdc5a	0.31222802
168	0x3f391122	0.7229177
169	0xbf31f9c4	-0.6952174
170	0xbea68bd8	-0.32528567
171	0x3ebf08a4	0.3731128
172	0xbede73a6	-0.43447608
173	0x3ec88279	0.39162043
174	0xbf208a43	-0.6271097
175	0xbf44cd2f	-0.76875585
176	0xbf7402f8	-0.9531703
177	0xbcf7c757	-0.03024642
178	0x3e0ac191	0.13550402
179	0x3eb022e2	0.34401613
180	0x3e458877	0.19290338
181	0xbe495516	-0.19661364
182	0x3de8b3fc	0.11362454
183	0xbe10db30	-0.14146113
184	0xbd6ac0e3	-0.057312857
185	0xbf3819b8	-0.71914244
186	0x3e2a1133	0.16608123
187	0x3ec569cb	0.38557276
188	0xbe5b1c5c	-0.21397537
189	0xbe8a4c22	-0.2701121
190	0x3b8a28cf	0.0042162905
191	0xbf41baea	-0.75675833
192	0x3f02c492	0.5108119
193	0xbeae7eb0	-0.3408103
194	0xbd19f47a	-0.037586667
195	0x3df0424c	0.11731395
196	0x3f664b87	0.89958996
197	0xbeab3395	-0.3343779
198	0xbc570c59	-0.0131255025
199	0xbe294616	-0.16530642
200	0x3de0ed28	0.10982734
201	0xbf2d1d48	-0.67622805
202	0x3ee4bcd7	0.44675323
203	0xbf03800f	-0.51367277
204	0x3e90a8fd	0.28253928
205	0x3ef0fd26	0.47068137
206	0x3bb53ac3	0.0055306866
207	0x3d67f670	0.056631505
208	0x3e5194df	0.20466946
209	0xbdd94a5e	-0.106098875
210	0xbe5d4a33	-0.21610336
211	0x3ecb4856	0.39703625
212	0xbf072ee4	-0.52805924
213	0x3d5035f6	0.05083271
214	0xbddb2823	-0.10701015
215	0xbeed0e38	-0.4629991
216	0xbe3c28e4	-0.18374974
217	0xbe58cabf	-0.21171091
218	0x3de597f7	0.112106256
219	0x3e08a075	0.1334246
220	0x3e8a84bb	0.2705439
221	0xbf33f391	-0.7029353
222	0xbf42e9e7	-0.76138157
223	0xbe2c5a54	-0.16831332
224	0xbe43084e	-0.19046137
225	0x3e88d490	0.26724672
226	0x3f035336	0.51298845
227	0x3dda0270	0.10644996
228	0x3eda1441	0.42593578
229	0x3eaf6543	0.34256944
230	0xbf0de759	-0.55431134
231	0x3e56784d	0.20944329
232	0x3e7a6a9e	0.24454734
233	0xbe6661ab	-0.22498195
234	0xbf1492bd	-0.58036405
235	0x3e6e7e52	0.23290375
236	0x3d9f14ec	0.077676624
237	0x3f02c784	0.51085687
238	0xbf094591	-0.53621775
239	0xbeb36303	-0.35036477
240	0xbef4f91e	-0.4784631
241	0xbe9c6a12	-0.30549675
242	0x3f005584	0.50130486
243	0x3dcb5a31	0.09929312
244	0xbf0add7b	-0.542442
245	0x3ec3bd20	0.38230228
246	0xbe352cad	-0.17692824
247	0xbed089d5	-0.40730157
248	0x3eb122ef	0.34596965
249	0xbeb9e55d	-0.36307803
250	0x3f3ca08b	0.7368247
251	0x3ebc1c7b	0.3674048
252	0x3eb86b19	0.3601921
253	0x3e67f18a	0.22650734
254	0xbf0718c6	-0.52772176
255	0xbb7205c7	-0.0036929713

transformer.layers.0.0.fn.fn.to_out.weight f4 [64, 64]
0	0x3f37bb7e	0.71770465
1	0x3fa3c197	1.2793454
2	0x3e2f7f2a	0.17138353
3	0x3f5c0940	0.85951614
4	0x3dddd2a0	0.10831189
5	0xbe5665f1	-0.20937325
6	0xbf01805f	-0.50586504
7	0xbe837aaf	-0.25679538
8	0xbf821371	-1.0162183
9	0xbe0b50f8	-0.13605106
10	0x3f1dc481	0.61627966
11	0x3f3844c2	0.71979916
12	0x3f09aab5	0.53776103
13	0x3e2acb35	0.1667908
14	0x3eae91c8	0.34095597
15	0x3f12e469	0.57379776
16	0x3f0a7788	0.5408864
17	0x3ec787dc	0.3897084
18	0x3f39bdea	0.7255541
19	0x3f0a6ec4	0.54075265
20	0xbea7f416	-0.3280341
21	0xbf0e93f5	-0.55694515
22	0xbdfc6caa	-0.123254135
23	0x3e56a5be	0.20961663
24	0xbf2e636e	-0.6812047
25	0xbf5c368d	-0.8602074
26	0xbeb8f743	-0.36126146
27	0xbf3a8370	-0.7285681
28	0xbe01502d	-0.12628241
29	0xbea9f876	-0.33197373
30	0xbf3abf5b	-0.72948235
31	0xbb60e696	-0.0034317127
32	0xbd40c524	-0.047063008
33	0x3eaaf96e	0.33393425
34	0xbf40996c	-0.75234103
35	0x3e8fc735	0.2808167
36	0x3f87276c	1.0558906
37	0x3f8c2764	1.0949521
38	0xbefa513c	-0.48890102
39	0x3f84cc95	1.0374933
40	0x3f4a0f80	0.789299
41	0x3f96c1ca	1.177789
42	0x3dd160d2	0.10223545
43	0x3f82b439	1.021125
44	0x3f948260	1.1602287
45	0xbfca4513	-1.580233
46	0xbe68a54e	-0.22719309
47	0x3f1180bd	0.56837064
48	0xbf4b092a	-0.7931086
49	0x3ed63d46	0.41843623
50	0x3f656753	0.89610785
51	0x3f0395ac	0.51400256
52	0x3d6aa7c0	0.057288885
53	0xbf6c33f1	-0.92266756
54	0xbed5c79b	-0.4175385
55	0x3e45ed19	0.19328727
56	0xbf129b1d	-0.57267934
57	0xbf0e27e8	-0.5552964
58	0xbec53810	-0.38519335
59	0xbebe0c0a	-0.3711856
60	0xbf5ad295	-0.8547757
61	0x3ddf0d01	0.10891152
62	0x3f1cee0f	0.6130075
63	0x3ee5e817	0.44903633
64	0xbe330191	-0.17481066
65	0xbde65693	-0.112469815
66	0x3f874dcf	1.057062
67	0x3f0f315a	0.5593468
68	0x3f324d8c	0.6964958
69	0xbf4825b7	-0.7818255
70	0x3e794166	0.24341354
71	0x3bcd7d12	0.006271013
72	0x3e185807	0.1487733
73	0x3fa35619	1.276065
74	0x3f42d41a	0.7610489
75	0xbe9e5208	-0.3092196
76	0x3e90a53a	0.28251058
77	0xbe96541b	-0.29361042
78	0xbf2cbca2	-0.6747533
79	0x3dfd2617	0.12360781
80	0x3f29ffaa	0.6640574
81	0x3e48c2cc	0.19605559
82	0xbf9834eb	-1.1891149
83	0xbf28d0b3	-0.6594345
84	0x3fb563f3	1.4171127
85	0xbe8f71fa	-0.28016645
86	0xbef02b18	-0.46907878
87	0x3e80505f	0.25061318
88	0xbee612a3	-0.44936094
89	0xbf273c2f	-0.6532621
90	0xbf122dfd	-0.5710142
91	0x3f77ef8f	0.9684991
92	0x3ed0f439	0.40811327
93	0xbec08885	-0.37604156
94	0x3f40470b	0.751084
95	0xbe21b996	-0.15793452
96	0x3f8b2a74	1.0872331
97	0xbf728ba2	-0.9474431
98	0x3d00e31e	0.031466596
99	0x3eb2e842	0.34942824
100	0xbf288fd6	-0.65844476
101	0xbf383636	-0.7195772
102	0x3fca0cb4	1.5785127
103	0x3f2fb584	0.68636346
104	0xbeb628df	-0.35578057
105	0xbdb9d40f	-0.0907365
106	0xbe210e1a	-0.15728036
107	0xbf3fada2	-0.7487432
108	0xbd75df82	-0.060027607
109	0x3e917c6c	0.2841524
110	0xbe3f6327	-0.18690167
111	0xbe11dfbc	-0.14245504
112	0xbf9ebdd3	-1.240168
113	0x3e4c2a49	0.19938006
114	0x3f7edfaa	0.99560034
115	0x3d570d76	0.05250307
116	0xbef62792	-0.48077065
117	0xbdad2bd2	-0.08455624
118	0xbee0712f	-0.43836352
119	0xbeb25c36	-0.34835976
120	0x3f943a65	1.1580321
121	0x3f8351b0	1.0259304
122	0x3f02c4d0	0.5108156
123	0x3f1ffb67	0.62492985
124	0xbb084572	-0.0020793346
125	0xbe46362d	-0.19356604
126	0x3dc633bb	0.096778356
127	0x3f04929e	0.5178622
128	0x3eb0f8c1	0.34564784
129	0x3f55a5b3	0.8345596
130	0x3ecc6d1e	0.39927
131	0x3eef0a9b	0.4668778
132	0xbeddb963	-0.433055
133	0xbea4843a	-0.3213213
134	0x3f499c87	0.78754467
135	0xbf0f8704	-0.5606539
136	0x3e21ed18	0.158131
137	0x3f08ab89	0.5338674
138	0x3e65eda0	0.22453928
139	0xbd9d1c26	-0.076713845
140	0x3eaed52d	0.34147015
141	0x3e852408	0.26004052
142	0xbf0caf5a	-0.54955065
143	0xbec2cad6	-0.38045377
144	0xbf00dd3a	-0.50337565
145	0xbf8e41eb	-1.1113867
146	0xbcd9896d	-0.026554788
147	0xbda52f6d	-0.080656864
148	0x3f00d4b7	0.5032458
149	0x3dc61edb	0.09673854
150	0x3d592411	0.05301291
151	0xbeb0dde5	-0.34544292
152	0x3f3f6261	0.7475949
153	0x3eb14771	0.34624818
154	0xbeb2442d	-0.3481764
155	0xbfaeb324	-1.3648419
156	0xbf0159be	-0.5052756
157	0xbcbb05d9	-0.022829937
158	0xbded3ceb	-0.11583885
159	0x3f1254fa	0.57160914
160	0x3e7cf524	0.24702889
161	0x3f73e3dc	0.9526956
162	0x3c6729af	0.014109059
163	0xbda0b7e8	-0.07847577
164	0xbec5fc52	-0.38669068
165	0x3cd2be06	0.025725376
166	0x3eed1cf5	0.46311155
167	0x3e8c86b8	0.27446532
168	0xbe98d8e8	-0.29852986
169	0xbf1fc426	-0.62408674
170	0x3e878773	0.26470527
171	0xbe8c06e2	-0.27349
172	0xbe913b71	-0.28365663
173	0xbf7c9596	-0.9866575
174	0x3f297e40	0.6620827
175	0xbeff0cf6	-0.49814576
176	0x3f298150	0.6621294
177	0x3e70e252	0.23523834
178	0x3dec3c9f	0.11535
179	0x3e1e768d	0.15474911
180	0x3f2ddba7	0.6791329
181	0x3d00d1f2	0.03145022
182	0xbf315f0c	-0.69285655
183	0x3e955b27	0.29171106
184	0x3f40d769	0.7532869
185	0xbdd36c8c	-0.10323438
186	0x3ceeb638	0.029139623
187	0x3e7ead7c	0.24870867
188	0xbebb6abd	-0.36604872
189	0xbe0584fc	-0.13039011
190	0xbe5c7d2a	-0.21532121
191	0x3f22166e	0.63315475
192	0xbf9b7ea2	-1.214802
193	0x3e633d42	0.22191337
194	0x3f1847cc	0.59484553
195	0xbf782cd0	-0.9694338
196	0x3f896cb8	1.0736303
197	0x4023acef	2.55743
198	0x3e9dcdf1	0.30821183
199	0x3fac703c	1.3471751
200	0x3fa96fd6	1.3237255
201	0xbe25ba7d	-0.16184421
202	0x3e74155d	0.23836274
203	0xbf986786	-1.1906593
204	0xbf57bcca	-0.84272444
205	0xbf44bc68	-0.76849985
206	0xbfb0991b	-1.3796724
207	0xbfc5d5a0	-1.5455818
208	0x3ed8f663	0.42375478
209	0xbfbdd8ec	-1.4831824
210	0xc017dfbd	-2.373031
211	0xbf745023	-0.9543478
212	0xbf9d784c	-1.2302337
213	0x3e5a58a2	0.21322873
214	0x3faacd37	1.3343877
215	0xbd833f1e	-0.06408523
216	0xbd92a0a4	-0.07159546
217	0xbffac40f	-1.9591082
218	0xc007f1f8	-2.1241436
219	0xbf808967	-1.0041932
220	0xbeb72e51	-0.35777524
221	0x3e9721f7	0.295181
222	0x3f382bbe	0.71941745
223	0xbfa6c1a2	-1.3027842
224	0xbfd5e441	-1.6710283
225	0xbf3c7bc3	-0.73626345
226	0xbcc9e6ae	-0.02464613
227	0xbe90bcd5	-0.28269067
228	0xbf8f3976	-1.1189411
229	0xbef4b425	-0.4779369
230	0x3ece8554	0.40336096
231	0xbe422c91	-0.18962313
232	0x3f0cf6e9	0.55064255
233	0xbefd0e86	-0.49425143
234	0xbf04273d	-0.5162237
235	0x3f929a17	1.1453274
236	0xbf85388e	-1.0407884
237	0x3f145fbf	0.57958597
238	0x3f5efb65	0.8710235
239	0x3f54d167	0.8313202
240	0x400904e4	2.1409235
241	0x3a2a730d	0.0006502129
242	0xbf1fee00	-0.62472534
243	0x3f89dc4e	1.0770357
244	0xbfcef539	-1.6168586
245	0x3f12ffb0	0.574214
246	0xc04ac3fc	-3.168212
247	0xbffeddc5	-1.9911429
248	0x3df2727f	0.11838245
249	0x3f001bf1	0.50042635
250	0x3ea0b5ae	0.3138861
251	0x3f216d7b	0.6305768
252	0x3fbc3d93	1.4706291
253	0x403b5c93	2.9275253
254	0x3fb51140	1.4145889
255	0xbecefeaa	-0.40428668

transformer.layers.0.0.fn.fn.to_out.bias f4 [64]
0	0xc0097d77	-2.1482828
1	0x3efc51fa	0.49281293
2	0xbf44361a	-0.7664505
3	0x40243620	2.5658035
4	0xbfd1917b	-1.6372522
5	0x3f2b1542	0.6682931
6	0x3f26f587	0.65218395
7	0xbf2dfd1b	-0.67964333
8	0xbef7257c	-0.48270786
9	0x3ed7e166	0.42164153
10	0x3e828166	0.25489348
11	0x3efebe42	0.4975453
12	0xbf812d6f	-1.009199
13	0x3fa24d20	1.2679787
14	0xbe75056d	-0.23927851
15	0x3e00951d	0.12556882
16	0xbf65311e	-0.8952807
17	0x3eda6a19	0.4265907
18	0x3c910c28	0.017705992
19	0xbfc2b5e5	-1.521176
20	0x3f0b3d57	0.5439047
21	0x3effcf27	0.49962732
22	0x3fad9aa0	1.3562813
23	0xbd04fc55	-0.032467205
24	0xbf31a7f3	-0.69396895
25	0xbf2ac55e	-0.6670741
26	0xbee50f9b	-0.4473847
27	0xbf5aed0a	-0.8551794
28	0xbe0bd0bf	-0.13653849
29	0x3ebac319	0.36476973
30	0x3ff7af9a	1.9350464
31	0x3e214c52	0.1575177
32	0x3f50e548	0.81599855
33	0x3e00c84b	0.12576406
34	0x3d522592	0.05130536
35	0xbc9c4ce3	-0.019079631
36	0xbf30d606	-0.69076574
37	0x3e01bc99	0.126696
38	0xbeadca3b	-0.33943352
39	0xbea4dd44	-0.32200062
40	0xbeff8d67	-0.4991257
41	0xbe8b5c37	-0.27218792
42	0xc038a287	-2.88492
43	0x3f849209	1.0357066
44	0xbee5f9d6	-0.44917172
45	0x3d2501ea	0.04028503
46	0xbf6d9e82	-0.9281999
47	0x3e15b179	0.14618482
48	0xbe9052c8	-0.28188157
49	0x3ffce73a	1.9758065
50	0xbe81ae1a	-0.2532814
51	0x3fde2a41	1.7356645
52	0x3eea0d97	0.45713493
53	0x3d2b4733	0.041815948
54	0x3f2978cb	0.6619994
55	0x3e54991a	0.20761529
56	0x3f7f90d4	0.99830365
57	0xbf7443a6	-0.95415723
58	0xbf553923	-0.8329031
59	0xbfb7989b	-1.4343446
60	0xbf416891	-0.7555018
61	0x3fbcee0d	1.4760147
62	0x3f17e276	0.59329927
63	0xbfd87f17	-1.6913785

transformer.layers.0.1.fn.norm.weight f4 [64]
0	0x3f2fa53f	0.6861152
1	0x3ebe769f	0.37199876
2	0x3f57b3d6	0.8425878
3	0x3dc5e677	0.09663098
4	0x3f1f9784	0.6234057
5	0x3f091f5b	0.5356347
6	0x3f2427cd	0.6412323
7	0x3f56156d	0.83626443
8	0x3f831785	1.0241553
9	0x3eb0a08b	0.34497485
10	0x3e6b6e0d	0.229912
11	0x3e746cd4	0.2386964
12	0x3eef936a	0.46792156
13	0x3f3ca838	0.7369418
14	0x3ea88b12	0.32918602
15	0x3e8b373a	0.27190572
16	0x3f1022ee	0.563033
17	0xbd4aacb2	-0.0494811
18	0x3e927496	0.28604573
19	0x3f064608	0.5245061
20	0x3f14c5c3	0.5811426
21	0x3f7b2e53	0.9811756
22	0xbd059e94	-0.032621935
23	0x3de846fd	0.11341665
24	0x3d901cd9	0.07036752
25	0x3f0c58d0	0.5482302
26	0x3ed74e44	0.420519
27	0x3d0ab5aa	0.033864655
28	0x3f50a66c	0.8150394
29	0x3f39e217	0.7261061
30	0x3f9ff880	1.2497711
31	0x3eb5d5fc	0.3551482
32	0x3e686493	0.22694616
33	0x3eb3e472	0.35135227
34	0x3f523498	0.821115
35	0x3e831374	0.2560078
36	0x3e8ff892	0.28119332
37	0x3d5d3b2e	0.054011516
38	0x3f002ef0	0.5007162
39	0x3f5b5ca1	0.85688215
40	0x3e9b3ac9	0.30318287
41	0x3f411452	0.7542163
42	0x3f2a621f	0.6655597
43	0x3eacb781	0.33733752
44	0x3eeb66e9	0.45976952
45	0x3eb1b08d	0.3470501
46	0x3edea4b8	0.43485045
47	0x3ec986b9	0.39360598
48	0x3ebd4e7a	0.36973935
49	0x3f5cc407	0.86236614
50	0x3f24c278	0.64359236
51	0x3f64a53b	0.8931462
52	0x3f41154a	0.7542311
53	0x3edba396	0.42898244
54	0x3f5b7691	0.8572779
55	0x3eb99b22	0.3625117
56	0x3f55ac6b	0.83466214
57	0x3edf4867	0.43609926
58	0x3f0887ff	0.53332514
59	0x3ec3f09b	0.38269505
60	0x3ec1d42a	0.3785718
61	0x3f39bc45	0.725529
62	0x3f17158c	0.5901725
63	0x3f1b61d9	0.6069618

transformer.layers.0.1.fn.norm.bias f4 [64]
0	0xbec1634d	-0.37771073
1	0xbd3614b0	-0.044453323
2	0xbe885127	-0.26624414
3	0x3cc5384e	0.0240747
4	0xbf0a70eb	-0.5407855
5	0x3e93dd61	0.28879836
6	0xbd99adf4	-0.07503882
7	0xbe97d854	-0.29657233
8	0xbf5d6fdf	-0.86498827
9	0xbeb7622f	-0.35817096
10	0xbd4f1450	-0.05055648
11	0x3e08e9c8	0.1337043
12	0x3d74e182	0.059785374
13	0x3f0517f0	0.5198965
14	0xbdaafca3	-0.08348968
15	0xbe238f43	-0.15972619
16	0xbe3da258	-0.1851896
17	0xbd2bfcf0	-0.041989267
18	0xbc19e4e2	-0.009392949
19	0x3eaa6b14	0.3328482
20	0xbd8899c1	-0.06669951
21	0x3dda6698	0.106640995
22	0xbb8d5ae6	-0.0043138145
23	0x3daa7f90	0.08325112
24	0xbd659706	-0.05605223
25	0x3cda2b23	0.026631897
26	0x3f207605	0.62680084
27	0x3c989414	0.018625297
28	0x3dbbc08d	0.091675855
29	0x3e06597c	0.13120073
30	0x3f3ebae2	0.7450391
31	0x3e98b695	0.298268
32	0x3dfe27dc	0.12409946
33	0xbd42c213	-0.047548365
34	0x3f058968	0.5216279
35	0xbcbbd305	-0.02292777
36	0x3d585bf5	0.052822072
37	0xbc5ffdb8	-0.013671331
38	0x3e1aa14f	0.15100597
39	0xbeda0937	-0.42585155
40	0x3d03ae43	0.03214861
41	0xbe893723	-0.26799878
42	0xbe003416	-0.12519869
43	0x3d707bd7	0.058711853
44	0xbed6717a	-0.4188345
45	0x3e12872b	0.14309375
46	0x3e1029ea	0.14078489
47	0xbdb2f890	-0.08738816
48	0x3e1cff61	0.15331794
49	0x3edc6ca8	0.43051648
50	0xbc888935	-0.016666988
51	0x3e9385d6	0.28813046
52	0x3e311439	0.1729287
53	0xbe5bdb5b	-0.21470396
54	0x3e97ef4e	0.29674762
55	0x3de289ed	0.110614635
56	0x3ef7b6de	0.48381704
57	0x3e199818	0.14999425
58	0xbd75a76a	-0.05997411
59	0xbe360c53	-0.17778139
60	0xbe20e957	-0.15714012
61	0xbeb5e281	-0.3552437
62	0xbcfad779	-0.030620323
63	0xbf363d42	-0.7118722

transformer.layers.0.1.fn.fn.net.0.weight f4 [128, 64]
0	0x3ecdc060	0.40185833
1	0x3ed80274	0.42189372
2	0x3eacbafb	0.33736405
3	0xbf440be7	-0.7658066
4	0x3f75593e	0.958393
5	0x3f5b9373	0.85771865
6	0x3f6c5a38	0.9232516
7	0x3e528b07	0.20560847
8	0xbed383e0	-0.4131155
9	0x3fadbe29	1.3573657
10	0x3f881d1f	1.0633887
11	0xbe61a414	-0.22035247
12	0x3e970b15	0.29500642
13	0xbe9bd802	-0.30438238
14	0xbcbc733a	-0.023004163
15	0x3e5bacb7	0.21452604
16	0x3dc1f7c1	0.094710834
17	0xbc21f413	-0.009884852
18	0x3ea11545	0.3146154
19	0xbe211467	-0.15730439
20	0xbe538ccf	-0.20659183
21	0x3d1e4fab	0.038650196
22	0xbe963518	-0.29337382
23	0x3e883234	0.26600802
24	0xbf3ed1e7	-0.74539036
25	0x3d8602df	0.06543516
26	0xbf75219d	-0.95754415
27	0xbdd3204a	-0.10308893
28	0x3f30abba	0.69012034
29	0xbf548a8f	-0.83023924
30	0xbff6fc85	-1.9295813
31	0xbf15be10	-0.5849314
32	0xbfc804f4	-1.5626512
33	0x3d129891	0.03579003
34	0xbf53dd7a	-0.8275982
35	0xbf8081f7	-1.0039662
36	0xbf38c3dc	-0.7217386
37	0x3e9cd780	0.30633163
38	0x3ed2232a	0.41042453
39	0xbd2a1a50	-0.041529
40	0xbec357e3	-0.3815299
41	0xbe91964a	-0.28434974
42	0x3d726c25	0.059185166
43	0x3f5e6f3e	0.8688849
44	0x3fda3007	1.7045907
45	0xbf857f3a	-1.0429451
46	0x3ef60599	0.48051146
47	0x3f535302	0.82548535
48	0x3eb944b4	0.3618523
49	0x3f03f22c	0.515414
50	0x3e43c00f	0.19116233
51	0x3e93cf43	0.28869066
52	0xbf0f907a	-0.5607983
53	0x3f4f08d9	0.80872875
54	0xbef9954f	-0.48746726
55	0xbf0c390f	-0.54774565
56	0xbe7e4330	-0.24830317
57	0x3f7bbbed	0.98333627
58	0x3e55e39e	0.2088761
59	0x3ec8056b	0.39066634
60	0xbe05bed7	-0.13061081
61	0xbd478b99	-0.048717115
62	0xbf1e265d	-0.6177729
63	0xbe380cf4	-0.17973691
64	0x3f32ba9e	0.69816005
65	0x3dadd62e	0.08488117
66	0x3e62630c	0.22108096
67	0xbf475227	-0.7785973
68	0x3e6efd7c	0.23338884
69	0xbf68c167	-0.9092011
70	0xbef5949d	-0.47964945
71	0x3f9b0fbf	1.211418
72	0x3e4f3105	0.20233543
73	0xbeee0b4c	-0.46492994
74	0xbea0c56b	-0.31400618
75	0xbed86600	-0.4226532
76	0x3f2957bc	0.661495
77	0xbf66375f	-0.8992824
78	0xbed4cac0	-0.41560936
79	0x3eb42693	0.3518568
80	0x3f85d58d	1.0455796
81	0xbea4e221	-0.32203773
82	0x3f450af3	0.7696983
83	0xbf03b85c	-0.51453185
84	0x3f0b0ddb	0.54318017
85	0xbfaa5677	-1.3307637
86	0x3e8b353f	0.2718906
87	0xbf41d52a	-0.7571589
88	0x3eb51bef	0.35372874
89	0xbf424841	-0.758915
90	0xbf3d1d65	-0.7387298
91	0xbeacbb41	-0.33736613
92	0x3eb698bc	0.35663402
93	0xbde5c899	-0.112199016
94	0xbfb3bc99	-1.404193
95	0x3f061a55	0.5238393
96	0x3e0cf456	0.13765082
97	0x3fc66a25	1.5501143
98	0xbf65b6ce	-0.8973206
99	0xbf166011	-0.58740336
100	0x3f65b996	0.89736307
101	0x3d6fda1e	0.058557622
102	0xbfc1b30d	-1.5132767
103	0x3e82d3e2	0.2555228
104	0x3e73ae4b	0.23796956
105	0x3f1d76b2	0.6150924
106	0x3e428873	0.18997364
107	0xbd3ee3f1	-0.0466041
108	0x3f2fbbf9	0.686462
109	0x3e12bc53	0.14329652
110	0x3e4d0c3a	0.20024195
111	0xbf078cf6	-0.52949464
112	0xbeac31bd	-0.33631697
113	0xbe08f737	-0.13375555
114	0xbe8c35b9	-0.27384737
115	0x3c446a72	0.011988269
116	0x3eeb667f	0.45976636
117	0x3ecb1504	0.3966447
118	0xbe4fe25b	-0.20301192
119	0xbf0b7430	-0.54474163
120	0x3e04885e	0.12942645
121	0xbdb0c0ec	-0.08630547
122	0xbbe13cfd	-0.0068737254
123	0xbf683f14	-0.9072125
124	0x3fa2487b	1.2678369
125	0x3e426562	0.18983987
126	0xbf15b885	-0.5848468
127	0x3fb97fcb	1.4492124
128	0x3f7977a0	0.9744816
129	0xbef7c7b2	-0.48394543
130	0x3eff312f	0.49842212
131	0x3dda7f1e	0.10668777
132	0x3fbe82d4	1.4883676
133	0xbf86f68b	-1.0543989
134	0x3eb7184d	0.35760728
135	0x3f25a3cf	0.6470308
136	0x3f66b77b	0.9012372
137	0xbd86da28	-0.06584579
138	0x3f335ff1	0.7006827
139	0xbed2ce1c	-0.41172874
140	0xbf071814	-0.52771115
141	0xbee04fd1	-0.43810895
142	0x3f341e3d	0.7035864
143	0x3d9b6ac6	0.07588725
144	0x3f6561fe	0.8960265
145	0x3f9dc11a	1.2324555
146	0x3f1889e8	0.5958543
147	0xbe2fb2ae	-0.17158005
148	0x3e8ee007	0.27905294
149	0xbf5c7986	-0.8612293
150	0xbded3796	-0.11582868
151	0xbefeafa3	-0.49743375
152	0x3ae683cc	0.0017586886
153	0xbed73587	-0.42033026
154	0xbf0c2253	-0.54739875
155	0xbd8997a4	-0.06718376
156	0xbf0b4aaf	-0.54410833
157	0xbf24203f	-0.64111704
158	0xbf1880b1	-0.5957137
159	0xbfb11284	-1.3833776
160	0xbe82a026	-0.2551281
161	0x3d3e2f71	0.046431962
162	0xbfaed94f	-1.3660067
163	0x3edda35e	0.43288702
164	0xbea91f84	-0.33031857
165	0x3fc2c85f	1.5217398
166	0xbe29be65	-0.16576536
167	0x3f5ab539	0.85432774
168	0x3d4d20cb	0.050080102
169	0x3f39820b	0.72464055
170	0x3f48204d	0.7817429
171	0xbe6d280c	-0.23159808
172	0x3f0f9e75	0.5610116
173	0xbcf9ff5b	-0.03051727
174	0xbdfbce49	-0.12295205
175	0x3e8a427f	0.27003857
176	0xbf0fe985	-0.562157
177	0xbf0c46c3	-0.54795474
178	0x3f83d4b4	1.0299287
179	0x3e8b360b	0.2718967
180	0xbe38d479	-0.18049802
181	0x3db4ed96	0.088343784
182	0xbf16986d	-0.58826333
183	0xbf091d9e	-0.5356082
184	0xbee41c02	-0.44552618
185	0x3d052112	0.03250224
186	0x3e81c933	0.25348815
187	0xbcdac06a	-0.026703078
188	0x3f3c48ff	0.73548883
189	0x3e250afc	0.16117471
190	0xbf3373c6	-0.7009853
191	0x3e8949a4	0.26813996
192	0x3e3e999e	0.18613288
193	0x3e6080c9	0.21924128
194	0xbe23ee73	-0.1600893
195	0x3c37cb2e	0.011217875
196	0x3f2003d3	0.62505835
197	0xbeca86e2	-0.39556032
198	0xbf627d53	-0.8847248
199	0x3f27a51f	0.6548633
200	0x3f321678	0.69565535
201	0xbd0530d3	-0.032517266
202	0x3ed65df6	0.41868562
203	0xbebebd12	-0.37253624
204	0x3f8620b8	1.0478735
205	0xbcd182de	-0.025575098
206	0xbe38a84e	-0.18032953
207	0x3e7945f0	0.24343085
208	0x3f00e75e	0.5035304
209	0x3f305a9a	0.68888247
210	0x3f0945e3	0.53622264
211	0xbefd8280	-0.49513626
212	0xbd88f2b3	-0.06686916
213	0x3e9ce809	0.3064578
214	0xbe86de4f	-0.26341483
215	0x3ee20207	0.44142172
216	0x3edf4615	0.43608156
217	0xbe887889	-0.2665446
218	0xbdbeb0d0	-0.09311068
219	0xbeb88540	-0.36039162
220	0x3f1adacd	0.60490113
221	0xbffe324b	-1.9859098
222	0xc000f6b4	-2.0150576
223	0xbf913681	-1.1344758
224	0xbe6eab8a	-0.23307624
225	0x3ea813e8	0.32827687
226	0xbe888908	-0.26667047
227	0xbf1fce80	-0.6242447
228	0xbe8b89ca	-0.27253562
229	0x3aba1c94	0.0014199191
230	0xbed3dacc	-0.41377866
231	0x3e7674e4	0.24068028
232	0xbdc1cefe	-0.09463309
233	0xbe779fa9	-0.24182
234	0x3ec51d32	0.38498837
235	0xbdb818ee	-0.0898913
236	0xbe9279a8	-0.2860844
237	0x3ee82eb6	0.45348138
238	0xbf6a769a	-0.9158722
239	0xbe9551d7	-0.29164
240	0xbf4f5711	-0.8099223
241	0xbe9fd5c5	-0.3121778
242	0xbe8e5a6a	-0.27803355
243	0x3eb0e5f3	0.34550437
244	0xbf320e8c	-0.69553447
245	0x3f89b8d9	1.0759536
246	0xbe5aa904	-0.21353537
247	0xbdadb945	-0.08482603
248	0xbe6fd3fa	-0.23420706
249	0x3ef580bd	0.47949782
250	0x3f621848	0.883183
251	0x3f6dfc54	0.9296315
252	0x3eacfaf0	0.337852
253	0x3f809c31	1.0047666
254	0xbf98d2e2	-1.1939356
255	0x3e125a74	0.14292318

transformer.layers.0.1.fn.fn.net.0.bias f4 [128]
0	0xbed89cd5	-0.42307153
1	0xbe148923	-0.14505439
2	0xbf54af32	-0.83079827
3	0xbeede20e	-0.4646153
4	0xbef09fdd	-0.46996966
5	0x3d5bd21b	0.05366717
6	0xbecb7239	-0.39735582
7	0xbdf0d90a	-0.11760147
8	0xbf406ac6	-0.75162923
9	0xbe6dde5d	-0.23229356
10	0xbeb88aef	-0.36043498
11	0xbda28ea6	-0.07937364
12	0xbc113bcf	-0.008864357
13	0xbebdcb15	-0.37069002
14	0xbe7fbc3f	-0.24974154
15	0xbf3069fb	-0.68911713
16	0xbf472596	-0.77791727
17	0xbe33254e	-0.174947
18	0xbd3175c1	-0.04332519
19	0xbf0f03b4	-0.55865026
20	0xbe5ea07a	-0.21740904
21	0xbe8f8b5b	-0.28036007
22	0xbf7f64cf	-0.99763197
23	0xbf0a1833	-0.53943175
24	0xbf49c906	-0.7882236
25	0xbf3dd46e	-0.74152267
26	0xbd269bba	-0.040675856
27	0xbd804420	-0.06262994
28	0xbf0ab540	-0.54182816
29	0xbf7042f7	-0.9385218
30	0xbf68ce04	-0.90939355
31	0xbe85e771	-0.26153138
32	0xbf574376	-0.8408731
33	0xbe601a21	-0.21884967
34	0xbebfc632	-0.374559
35	0xbdcfc0ef	-0.10144221
36	0xbec26346	-0.37966365
37	0xbee1528c	-0.4400829
38	0xbf564808	-0.8370366
39	0xbf06bdfa	-0.5263363
40	0xbf12f0db	-0.57398766
41	0xbef18b08	-0.47176385
42	0xbf22536d	-0.6340855
43	0xbf064f66	-0.524649
44	0xbefcb68c	-0.49358022
45	0xbf1bd9bf	-0.6087913
46	0xbf67a69c	-0.904886
47	0xbec964e0	-0.39334774
48	0xbedec38a	-0.4350856
49	0xbe84d655	-0.25944772
50	0xbe88d126	-0.26722068
51	0xbef9b258	-0.48768878
52	0xbede55e1	-0.43424895
53	0xbea193d7	-0.31558105
54	0xbf19da49	-0.600987
55	0xbe8f1dbe	-0.2795238
56	0xbd43ad0a	-0.047772445
57	0xbec3cecc	-0.3824371
58	0xbf387055	-0.72046405
59	0xbf152300	-0.5825653
60	0xbe14e10a	-0.1453897
61	0xbef6d723	-0.4821101
62	0x3ea5b9bf	0.32368276
63	0xbf05dac9	-0.52286965
64	0xbf2fb7ab	-0.6863963
65	0xbeeacf0b	-0.45861086
66	0xbe84259c	-0.25809944
67	0xbf149075	-0.58032924
68	0xbf118be4	-0.5685408
69	0xbed1a496	-0.40945882
70	0xbf0f03c6	-0.5586513
71	0xbed332ce	-0.41249698
72	0xbee80697	-0.45317528
73	0xbe6a3cee	-0.22874805
74	0xbf83ce99	-1.0297424
75	0xbef901ad	-0.4863409
76	0xbf0d2ba1	-0.551447
77	0xbe4dfea8	-0.20116675
78	0xbf2289ad	-0.63491327
79	0xbf41d615	-0.7571729
80	0x3c63310d	0.013866675
81	0xbf7b0bf6	-0.98065126
82	0x3e221e73	0.15831928
83	0xbf1b8d5a	-0.6076256
84	0xbe9d4f30	-0.30724478
85	0xbe9e6652	-0.3093744
86	0xbf1fba60	-0.6239376
87	0xbf0c7f49	-0.5488172
88	0xbebaa07b	-0.36450562
89	0xbf06eaf3	-0.52702254
90	0xbed47070	-0.41492033
91	0xbf0f49eb	-0.55972165
92	0xbe2a1059	-0.16607799
93	0xbdcf540f	-0.10123455
94	0xbe672f37	-0.22576605
95	0xbf08b374	-0.53398824
96	0xbe831453	-0.25601444
97	0xbf5e04e1	-0.86726195
98	0xbe84f989	-0.2597163
99	0xbf4e57eb	-0.806029
100	0xbee1e5fa	-0.4412077
101	0xbe3d0bb8	-0.18461502
102	0xbf551829	-0.8323999
103	0xbeba452c	-0.363809
104	0xbeffa346	-0.49929255
105	0xbe84a388	-0.25906014
106	0xbf04a818	-0.5181899
107	0xbf4aef88	-0.79271746
108	0xbf2dc6bf	-0.6788139
109	0xbe274a87	-0.16337024
110	0xbe2eb0ec	-0.17059678
111	0xbefa3501	-0.48868564
112	0xbf035198	-0.5129638
113	0xbf367c20	-0.7128315
114	0xbf123be1	-0.5712262
115	0xbecb53db	-0.39712414
116	0xbeefa6bf	-0.46806905
117	0xbe9edab0	-0.3102622
118	0xbecdc6d2	-0.4019075
119	0xbf035c7d	-0.51313
120	0xbd2d5c2b	-0.042324226
121	0xbf01aef0	-0.5065756
122	0xbf61536a	-0.88017905
123	0xbf71f3a5	-0.945124
124	0xbf7b77be	-0.9822959
125	0xbee7b7dc	-0.4525746
126	0xbea1e111	-0.31617025
127	0xbea1d45d	-0.31607333
